landmark_project/model_scratch.pt (torch, 305415 bytes, 10 tensors)

conv1.weight f4 [8, 1, 3, 3]
00000000: 8433 e2bd b038 61bd 5155 b4bd 0c9d c33b
00000010: 7069 a83e 94b4 a03e 467a 973e 74d6 793d
00000020: d149 80bd 88ab 2cbe deb4 963e 56f8 8abe
00000030: ff9b 43bd b345 8abe 4306 6ebe 7e9a 9dbd
00000040: 3ef9 c33d 6c55 e8bd 3c8d d13c 00d6 4dbe
00000050: d109 3dbe fdc1 73be 2305 3f3e 878b 86be
00000060: 5a39 0f3e 341d 1ebe 6297 90be ee58 7cbe
00000070: 100c f9bd 7942 91be 81ea 9abe f63e 0a3e
00000080: f070 13be 3c92 6dbd af05 3e3b c049 09be
00000090: ca52 4dbe 84d5 14be 3bb1 35be 090e 88be
000000a0: d1af 56be 57bc 14be 0dfc abbd fcf1 4a3e
000000b0: 100f 623e 7cb9 e43d 50cd c5bd e3fb 863e
000000c0: 679f 903e 8f2a 83bd e134 0b3e ed9c 513d
000000d0: 516c a53e c2e5 88be ef9c a9be 55eb 1d3d
000000e0: 66ce 86be 61e5 aa3d 9114 77be 23ec a23e
000000f0: 1174 50bb df63 e33b 023b d3bd b8a5 a93e
00000100: 6ce5 97be 859c a93e 0ef4 24bd a3fd 7cbe
00000110: eba6 86be 4402 00bd 1f7b 773d a0bd 563e
-0.11044982 -0.054985702 -0.08805335 0.005969649 0.32892942 0.3138777 0.29585475 0.060995534
-0.06264079 -0.16862309 0.29434866 -0.2714259 -0.04775619 -0.270063 -0.23244576 -0.07695483
0.095690235 -0.11344418 0.025580041 -0.20101166 -0.18460776 -0.2380447 0.18654303 -0.26278326
0.13986722 -0.15440828 -0.28240496 -0.24643299 -0.12160504 -0.28371027 -0.30257037 0.1350058
-0.14398551 -0.058000788 0.0028995087 -0.1340704 -0.20051113 -0.14534575 -0.1774339 -0.26573208
-0.20965506 -0.14524971 -0.08397684 0.19818872 0.22076058 0.11168191 -0.09658301 0.2636405
0.28246614 -0.06404602 0.1359439 0.051175047 0.323092 -0.2673779 -0.33127543 0.03855451
-0.26329345 0.08344532 -0.24128939 0.31820783 -0.0031807462 0.006939396 -0.10313989 0.33134246
-0.29667222 0.33127227 -0.04027181 -0.2470613 -0.26299223 -0.03125216 0.06042015 0.20970774

conv1.bias f4 [8]
00000000: 1903 1e3d e3fc aa3e 48ab 8fbc e658 5c3e
00000010: 8d23 853b f5d2 243d 5b89 db3d 7afa eabd
0.038577173 0.33396062 -0.017537728 0.21518287 0.004063076 0.040240247 0.10719558 -0.11473556

conv2.weight f4 [16, 8, 3, 3]
00000000: 5b5e 603d d758 c6bb aa68 943d c9d5 453d
00000010: e8af d7bd 9932 613b 1b11 c03d 4c80 403d
00000020: f1ae 8bbd 43bc e4bd 5682 c3bd 363e 7fbc
00000030: 70e9 a23d d76c a73d 993a 7ebb 2b4e 26bd
00000040: daf0 593b f54c e4bd 05bb 383d 470c e43d
00000050: a722 f63c e2c3 d5bd 0c63 bc3d 8989 dabc
00000060: 3df1 c9bd 7280 2ebd 0da9 8a3b 9ea9 d83d
00000070: dfbb ce3c a423 ad3d 8229 263d 48ee b33c
00000080: 2dcf 273c ff61 44bd 9021 25bd edd6 6bbd
00000090: 5517 a3bd 4ca8 bf3d 7ead 1ebd 947f ad3b
000000a0: dfc6 79bc d982 dbbd bbc8 173d 61ed bebd
000000b0: fd7e bcbd 376d 47bd 9e3a 85bc 0f2a 543d
000000c0: 4ae8 d53d 5d03 2d3d a26b ebbd f302 163c
000000d0: 41ba 313d 5af2 7f3d a1f2 c8bd b929 383d
000000e0: c53c 88bd f232 053d f1fe 43bc e6fe abbd
000000f0: d6ff 8ebb 1d5c 283d c442 c0bd 0740 aa3d
00000100: 850b 013d ab2a 353c 115e d43d 0b8c f0bc
00000110: 7e74 c23d e7c6 c03d fe2d 80bc b982 e13d
00000120: 9bf5 ca3d 8501 ef3d 5ea8 b9bd a7d3 433c
00000130: 0939 95bd 9a2e d73d 177e 223b 25a3 713d
00000140: 8f50 bc3c 79a8 03bb 6ad0 c2bd ea01 e23d
00000150: b313 a83d d4c2 a9bd 4700 273c 389a ffbc
00000160: 29b2 e4bd 1fa4 f1bc 7695 d83d ccf0 d53d
00000170: 5cad 443d 2fcb bf3d 2470 803d 0683 bc3c
00000180: a756 8f3d 2f6a e9bc 61ce 60bd d079 5a3d
00000190: 672b 96bd 4128 af3d 0438 7cbd 0cae e0bd
000001a0: 6a7e 4abd 928a 12bd 1ff5 bc3d 6431 c73d
000001b0: 1620 b7bd c10f a33c cdbc 8e3d 8bfc ee3c
000001c0: da3c a1bd 8739 483d c714 cbbd 7db8 15bd
000001d0: 0197 91bd 5663 bfbc 49eb 353d 0224 b3bd
000001e0: 1024 bc3d 4b0f a83c 21be d1bd 21f8 cfbd
000001f0: 408a 49bd 7bd3 e6bd e63d cfbd 58b6 34bb
00000200: 08d0 8bbd de3b ebbc 6376 013d 6a84 4bbd
00000210: c6ad 473c ac5b c4bd 2d97 8d3d 937d cebc
00000220: d2ad 33bd 8299 933d 1b7f 8a3d 77c4 b6bd
00000230: 6ad7 81bd 8b44 97bd f30b 0f3c 14e8 d6bc
00000240: 157b e2bd bc2f 273c 7154 5c3d fc72 cb3d
00000250: a36a 9b3c 40b4 e5bd e4f8 ec3d f291 b73b
00000260: f203 64bd 74ef 8c3d 7881 94bd 330c cdbd
00000270: 9f01 d63d 27da 713d 259b 01bd 2a66 74bc
00000280: 847d 913d eb12 783d 00a1 fc3c c9a4 c2bb
00000290: 256f fbbc 49b6 753c 21a9 993c 4a5b df3d
000002a0: 2da7 9bbd b0a5 0abc 3374 93bd 6318 79bd
000002b0: 3aac f93c 5888 8d3d f03c 9f3d 281b 403c
000002c0: 0273 d8bd a955 dc3d 4b53 54bd d8ec 1bbd
000002d0: bad9 b33c 9a13 5abc 4e27 38bd 5294 783d
000002e0: 8347 45bb 2335 97bd 6206 d73d d84d ff3b
000002f0: d0a4 803d 9fa0 813c 5f28 c83c 5ed1 40bd
00000300: be76 9ebd 9968 b5bd 6503 de3d 31ef e13d
00000310: 7596 98bc 0089 3dbd d210 1a3d e8e8 a6bd
00000320: a43c ac3a 01f3 e53d 8ffe c53d e7c4 8e3d
00000330: 83a0 efbd 2ffe cfbd 767f 0fbc 24c1 6cbd
00000340: 3258 c93d fc21 39bd dfa8 523b 2270 9a3d
00000350: 66ab 2e3d 5a53 a0bd 1f0a 8f3d 4ea0 93bd
00000360: 399b fe3b ed91 0e3d 682b 4ebd 0169 cb3c
00000370: 6728 7fbd 87a8 b33d 2e10 debd fb77 05bd
00000380: f6aa 733c 3e09 cfbc 3199 ddbd 002c 65bd
00000390: c5dc 9bbc 8bc6 463d f0b6 c8bd 474b d5bd
000003a0: b334 69bd 8d00 e6bd 45e3 bfbd 977b 98bd
000003b0: fade dd3d 9429 b7bd 3588 433c 4baa 9ebd
000003c0: 395e 16bd 7210 8e3c 4c6f ae3d 7aa2 833c
000003d0: 503e 81bd d085 963b 2686 d73d c984 a8bd
000003e0: 42a8 523d 5e9f 47bd 954f e9bd d383 b13d
000003f0: b79e 1a3c d834 bebd 4d42 c63d 8645 b13c
0.054777484 -0.006053071 0.072465256 0.048299585 -0.10531598 0.0034362434 0.093782626 0.046997353
-0.06820477 -0.111687206 -0.09546344 -0.015578797 0.07954681 0.081750564 -0.003879225 -0.04060189
0.003325513 -0.11147491 0.04510023 0.11135154 0.03004582 -0.10437752 0.09198579 -0.02667691
-0.09860466 -0.042602964 0.004231578 0.10579227 0.025236068 0.084540635 0.04056693 0.021964207
0.010242266 -0.04794502 -0.04031521 -0.057578016 -0.079634346 0.09358272 -0.038739674 0.0052947495
-0.0152451685 -0.107183166 0.037056666 -0.0932262 -0.092039086 -0.04868814 -0.016263302 0.051797923
0.10444696 0.042239536 -0.11495139 0.009155977 0.043390516 0.062486984 -0.09811903 0.044961665
-0.06652216 0.03251929 -0.011962638 -0.083982274 -0.004363994 0.04110347 -0.093877345 0.083129935
0.031505127 0.011057536 0.10369504 -0.029363653 0.09494875 0.094129376 -0.01564693 0.110112615
0.09910127 0.11670212 -0.090653166 0.011952317 -0.07286269 0.105069354 0.0024794394 0.058993477
0.022987632 -0.0020089431 -0.09512408 0.11035521 0.08206882 -0.08289114 0.010192937 -0.031201467
-0.11166794 -0.029497204 0.105753824 0.10446319 0.04801689 0.09364926 0.06271389 0.023011696
0.069989495 -0.028493015 -0.05488432 0.053338826 -0.07332497 0.085526 -0.06157686 -0.10970697
-0.049436964 -0.035776682 0.09226441 0.097262174 -0.08941667 0.019904973 0.06969605 0.029173156
-0.07872935 0.048882987 -0.09916072 -0.036552895 -0.0710888 -0.023362797 0.04441384 -0.08747102
0.09186566 0.020515105 -0.10241342 -0.10154749 -0.04920411 -0.112708054 -0.10119228 -0.0027574506
-0.06826788 -0.02871507 0.031607043 -0.049686827 0.012187427 -0.095877975 0.069136 -0.025206363
-0.04386694 0.07207014 0.06762525 -0.089241914 -0.06339915 -0.073861204 0.008730876 -0.02623371
-0.11058632 0.010204252 0.053791467 0.09934041 0.018971747 -0.112160206 0.115709096 0.005602115
-0.055667825 0.068816096 -0.07251257 -0.100120924 0.10449528 0.059045937 -0.031642098 -0.014916936
0.07104018 0.060564917 0.03083849 -0.005940054 -0.030692646 0.014997073 0.018757405 0.10906084
-0.076002456 -0.008462355 -0.071998976 -0.060814273 0.030477632 0.06910771 0.07775295 0.011725225
-0.10568811 0.10758526 -0.051837247 -0.03806767 0.021954406 -0.013310337 -0.04495936 0.060688324
-0.0030102439 -0.07383182 0.10499264 0.007791262 0.062814355 0.01582366 0.024433313 -0.047074668
-0.07737492 -0.08857841 0.10840491 0.1103195 -0.018626431 -0.04627323 0.037613697 -0.08149892
0.0013140631 0.1122799 0.09667694 0.0697115 -0.11700537 -0.101559035 -0.008758416 -0.05780138
0.09831275 -0.045198426 0.0032144112 0.07540919 0.042643927 -0.07828398 0.06984352 -0.0720831
0.007769969 0.034807134 -0.050334364 0.024830343 -0.06229439 0.087723784 -0.1084293 -0.032585125
0.014872303 -0.025272962 -0.108202346 -0.055950165 -0.01902617 0.04852919 -0.098005176 -0.10414749
-0.056935024 -0.11230574 -0.0936952 -0.07445448 0.10833545 -0.08943477 0.01193433 -0.077473246
-0.03671095 0.017341826 0.08517322 0.016068686 -0.06310713 0.0045935884 0.10523634 -0.08228452
0.051429994 -0.04873597 -0.11392132 0.086677216 0.009437255 -0.09287423 0.096806146 0.021639597

conv2.bias f4 [16]
00000000: 352c 57bc 05b8 073c f0bf 79bd 629d 9e3b
00000010: 2819 8c3d 64f9 fc3d 058b ca3d bde8 063c
00000020: b82d ddbd 4ca9 a3bd b0d7 01bc 7c26 7ebd
00000030: 1659 e1bd 55a4 5d3d ec00 9ebd e21c af3d
-0.013133098 0.00828362 -0.06097406 0.004840539 0.06840736 0.12352255 0.09889797 0.0082342
-0.10799736 -0.07991275 -0.007924959 -0.06204842 -0.1100332 0.054111797 -0.077150196 0.08550431

conv3.weight f4 [32, 16, 3, 3]
00000000: 92c0 7a3d d4d6 483d 8de2 943c 37cd 02bd
00000010: 0ef7 a4bc b65c 143d e2cb 47bd 94e1 28bd
00000020: 8e34 3a3b 0293 47bc b48c 00bd 89e7 3abc
00000030: c9eb 2a3c 51d0 683d 24a0 b93c c9b0 7fbd
00000040: bf53 b2bc d7f8 3d3d 18d1 97bb 4cf4 fbbc
00000050: 4ffa fdbb f6c9 4ebd 53f3 8d3d a134 8cbc
00000060: 54f2 753c 816a a1bd 60be 9ebc 8a02 2abd
00000070: 5e07 643d 32b0 853d fe0b 32bd 9668 293d
00000080: 9954 483d 4237 8b3d 1a68 4cbd 45ef 023a
00000090: 17ae e4bc d47c 903c f65a 443c f8c0 783d
000000a0: 0dd4 9c3d 3517 bbbc 5b65 9ebd 94cb 033d
000000b0: 5435 36bd c311 7e3d 424c 9f3d 2f5e d4bc
000000c0: 853a 8a3d fc79 0ebc b0a4 80bd 0627 e6ba
000000d0: 690e 51bd d578 7dbd 7c93 c73c 3633 26bd
000000e0: ea90 5e3d 22f0 3a3d e797 2f3d 0f11 d0bc
000000f0: 6b5f 973c d0dd 28bd d78f 6ebd fb61 33bd
00000100: 1dcd da3b ad86 853d 652e 9ebd 498b 713d
00000110: 0ad6 5abd 8e8b 803d 933a 693d b244 973d
00000120: aae6 97bc dd52 f0bc 43d5 a93d 187c 35bd
00000130: cfb4 ad3c 55a8 e9bc 309f 7fbb 44a3 4abd
00000140: c331 003c cfe5 61bc 8633 09bd 474d 363c
00000150: 6330 7abd 9ff0 08bd f0bf a43c 80b3 d0bc
00000160: 537c 65bd fc8c ba3c 32c0 95bd 8a90 07bd
00000170: 5f1b 0c3c 9e97 9ebc d86e 9e3c 084a 51bc
00000180: 2a8b 413d 73c8 183d f0ea 90bc 5980 5c3d
00000190: 5257 a63d 2a19 943c b252 803d 1e71 083c
000001a0: 797f 2ebd 05e8 a4bd 6991 4ebd 874c 1dbd
000001b0: 1090 83bd 11bc 1ebd aba1 9a3d 453b 3e3c
000001c0: 0c8b 5c3d ea7e 893d 02d4 8dbc f654 3dbc
000001d0: c9a2 8a3d ee86 8c3d ceb8 033d dc3e 963d
000001e0: 9083 4cbd dbea 8a3d df04 2b3d ac3c f83b
000001f0: 5369 733d 0e0f a63d a97b 12bd b878 0fbd
00000200: 3221 8fbd 6b26 a43d 5716 193d eb6f 25bd
00000210: d509 9b3d 46ca 39bd a505 4e3c 23f3 333a
00000220: ccc5 68bd 8f51 80bd 12e3 30bd 5891 88bd
00000230: ae56 8bbd a649 6f3d 74d5 45bd 05de d23b
00000240: a43a 013c 7e90 4cbd a7a6 81bd 64b9 a7bc
00000250: 85e1 32bd ba15 96bd 80d9 cebc bbe2 97bc
00000260: a154 68bd 1270 153d e0a1 0bbd 01d0 4e3d
00000270: 29f6 97bd ca74 23bd 0589 7b3d 456f 4a3b
00000280: 6be2 8ebd 15e9 febc 4dc3 a03d b967 35bd
00000290: 3193 3ebd bc25 5dbd 8b7b 8d3b 3d80 4ebd
000002a0: 2cb9 ba3c 0e91 f03c 7b52 f43c dfc7 4ebd
000002b0: 3649 3fbd 5b92 643d 373c b83c 0b40 45bd
000002c0: 8aac f4bc daff eabc 4157 60bd b13c 9abc
000002d0: 45cd 163b ae81 223d 7c0c a23c f0ee 673d
000002e0: c0ce 2b3d 7e5d 963d 4655 6d3d 6cf6 66bc
000002f0: a0f6 4dbd 7c25 143d f77d dbbc ce9a 053d
00000300: 10d6 113d f43f e6bc cc23 6c3c ec56 81bd
00000310: 0058 7abd 64b5 febc 74ee c93b 53cd 983d
00000320: a90b 99bd bf45 8d3d bf2b 303d 4862 16bd
00000330: bc0e 2dbd 9cad 9abd b0ce 823d 4ff9 5b3d
00000340: ad0d 1bbd 0cd0 d8bb 6b7d 8d3c 280f 853c
00000350: 64e3 013d ce41 59bd 7b11 273d 7574 4c3c
00000360: dfdb 513d c126 7cbc 64f4 4cbd c29c e13a
00000370: 6981 8bbd b504 953d 1fed b33c 7684 0abd
00000380: bafa 40bb aa5f 88bd 5f10 e5bb 4b53 353d
00000390: a25d 7f3d 22aa 8fbc 4827 3c3d c68e 0fbc
000003a0: a7bb 0e3d 2c72 993d 8ed7 133d 588a a7bd
000003b0: 8ccf 613c 7b2d a5bd af1a 0b3d b518 1c3d
000003c0: 3455 953d 5ecb 933d 6ad0 273d e7e7 6d3d
000003d0: 9898 943d 8a45 8dbd f5e0 31bd 3030 03bd
000003e0: 5510 7e3d 9a33 953d da13 aabd a8d4 b4bc
000003f0: a472 87bd 04f4 39bd 54e8 71bd 8eae 15bc
0.061218806 0.049033 0.018174434 -0.03193399 -0.020137336 0.03622123 -0.048778422 -0.041230753
0.0028412673 -0.0121810455 -0.031384185 -0.011407741 0.010432192 0.05683929 0.022659369 -0.062424455
-0.021768449 0.04637989 -0.00463308 -0.030756138 -0.0077507864 -0.050485574 0.06931176 -0.01711494
0.015011389 -0.07881642 -0.019377887 -0.041506328 0.05567109 0.06527747 -0.043468468 0.041359507
0.048908804 0.06797649 -0.049903966 0.00049947604 -0.027915044 0.017637648 0.011984577 0.060730904
0.07657633 -0.022838214 -0.07734176 0.03217657 -0.04448445 0.062028658 0.07778217 -0.025923816
0.06749443 -0.0086960755 -0.06281412 -0.0017559237 -0.051039133 -0.061882813 0.024362318 -0.040576182
0.05433742 0.045639165 0.042869475 -0.02539876 0.018478116 -0.041227162 -0.058242645 -0.043794613
0.0066772834 0.06519828 -0.07723693 0.058970723 -0.05342678 0.06276618 0.056940626 0.073861495
-0.018542606 -0.029336387 0.082926296 -0.0443078 0.02120438 -0.02852265 -0.0039004795 -0.04947211
0.007824364 -0.013787701 -0.033496402 0.011126823 -0.0610813 -0.0334326 0.020111054 -0.025476217
-0.056026768 0.022772305 -0.07312049 -0.033096828 0.008551448 -0.019359406 0.019339964 -0.012773998
0.047251858 0.03730054 -0.017690152 0.05383334 0.08122124 0.018078405 0.06265773 0.0083277505
-0.042602036 -0.08052067 -0.050431643 -0.03840306 -0.06423962 -0.038753573 0.07550367 0.011610811
0.053843543 0.0671366 -0.017313007 -0.011555901 0.0676933 0.06861673 0.032158665 0.07336208
-0.049930155 0.067830764 0.041752692 0.007575592 0.059426617 0.0810834 -0.035762463 -0.035027236
-0.069887534 0.0801514 0.03737482 -0.040389936 0.07570235 -0.04535892 0.012574588 0.00068645383
-0.05682926 -0.06265556 -0.0431853 -0.06668347 -0.06803642 0.058419846 -0.048299268 0.006435158
0.007887516 -0.049942486 -0.063306145 -0.020474143 -0.043672103 -0.07328363 -0.025250196 -0.01854073
-0.056721333 0.03648383 -0.034089923 0.050491337 -0.07419998 -0.0399063 0.06140997 0.0030889076
-0.069767796 -0.031117002 0.07849751 -0.04428837 -0.04652709 -0.053991064 0.004317706 -0.050415266
0.022793375 0.029366042 0.029824486 -0.05048358 -0.04670068 0.055803638 0.02248965 -0.04815678
-0.02986743 -0.028686453 -0.05477071 -0.018827768 0.0023010534 0.039674453 0.019781344 0.056624353
0.04194522 0.07342051 0.05794265 -0.0140968375 -0.050284028 0.03616856 -0.026793463 0.032618336
0.035604537 -0.028106667 0.0144128315 -0.06315407 -0.06111908 -0.031092353 0.006162459 0.074610375
-0.07472927 0.06898069 0.04301047 -0.036714822 -0.04225038 -0.075526446 0.06387079 0.053704556
-0.03785484 -0.006616598 0.017271718 0.016242579 0.031710997 -0.053041272 0.040788155 0.012478937
0.051235076 -0.015390099 -0.050037757 0.0017212855 -0.068117924 0.072762884 0.021963654 -0.03381773
-0.002944632 -0.066588715 -0.006990477 0.044268887 0.062345155 -0.01753718 0.0459359 -0.008762067
0.034846928 0.0749248 0.03609424 -0.08180684 0.013782393 -0.08065315 0.033960994 0.0381095
0.07291642 0.072165236 0.040970244 0.058082487 0.072556674 -0.06898029 -0.043427426 -0.032028377
0.062027294 0.07285233 -0.08304568 -0.022074059 -0.06613663 -0.045398727 -0.059059456 -0.009135855

conv3.bias f4 [32]
00000000: 83ef 31bd c3c0 bb3c 9d1f 833d 4c47 91bd
00000010: 68ef 5e3d 8aa5 ab3c 9a30 f7bc d11e c2bc
00000020: dd6c 77bd c93c debc d50c 60bd 436e a8bc
00000030: ee48 2dbd 0d01 2bbd b56e 6a3d 4a30 1c3c
00000040: 1ea5 08bd 9927 983d 786f 513d b319 be3b
00000050: b26b 183c 6467 8fbd 865a 2cbd d0f9 8d3c
00000060: 08b0 88bd 1067 83bb bbb1 1f3d 4124 923c
00000070: f153 8bbc dfb3 173d efd5 013d 4db3 853d
-0.043441307 0.022919064 0.06402514 -0.07093677 0.054427534 0.020952959 -0.030174542 -0.023696335
-0.060406554 -0.027128594 -0.054699738 -0.02056039 -0.04230588 -0.04174905 0.057234485 0.009532997
-0.033360593 0.07429428 0.051131696 0.0058014034 0.00930302 -0.07002142 -0.042078517 0.017331034
-0.066742 -0.0040100887 0.038987856 0.017839553 -0.0170078 0.037036773 0.031698164 0.065283395

conv4.weight f4 [64, 32, 3, 3]
00000000: c808 4ebd 7b51 d6bb 8634 19bd 0412 c33c
00000010: b7c5 efbc d481 10bd 8dda 6f3d a986 33bd
00000020: e769 cbbc 8343 0e3d 1eb9 b63c f0c0 31bc
00000030: 53e9 1fbd 2cfe 123d f50e 523d 74ea efbc
00000040: 7078 d13c 0885 5e3d a894 e0bc ec6d 8f3c
00000050: 830c 10bc d696 803c f21e cb3b e0fd 49bd
00000060: 6ce9 cebc 3742 d5bc 3970 24bd ff87 8ebc
00000070: 6afd 36bd 1157 59bd bd3d 143d b51f f9bc
00000080: 5871 043d bda6 a53c 5817 f23a e6b6 9cbb
00000090: a39e 993c b678 063d 94f7 423d fd53 50bc
000000a0: 0409 e5bc 18be 573d 9535 d2bc 6e40 e23c
000000b0: d63e 523d 98a5 67bb c9cf 08bd f7c7 33bd
000000c0: 14c6 5e3c f54e d53c 4ccc 63bd db96 15bd
000000d0: 8508 23bd a19f 463d 6695 8fbc a4e0 0e3d
000000e0: 2936 0bbd 79c7 07bc 962d f3bc 4dd2 7a3a
000000f0: a02f a73c b794 acbb e0cd 32bc 347e 24bd
00000100: 3f1d 4cbd 9446 2dbd 23d7 cbbc 7708 5db9
00000110: 28ba f8bb 0a8c da3c bc63 0b3d 5945 36bd
00000120: 44fe 2c3d cfff 4fbd 2f41 6abd 1e0a 123c
00000130: 5eeb f4bc 67a6 f23c 1648 3fbd a9aa 413d
00000140: bedb 4bbd 03b1 92bc c048 d43b 12b5 68bd
00000150: bf3d f63c 5702 883c 6a66 24bd 107e 4bbd
00000160: e85d 9d3c 7679 293c 3829 53bd 726e 65bd
00000170: 06c6 55bd a79f 1fbd 50c1 b1bc 7a7c 13bd
00000180: 733e c33c 8228 b53c 6957 9e3c 6a72 4dbb
00000190: 214b 0d3d 0014 3cbd a792 e43c d50e b33b
000001a0: f9ec 2e3d 45c7 fbbb 0ab7 0d3c 5a1d e6bb
000001b0: a289 523d b7e9 273d 109d 15bd 341b 78bb
000001c0: e21b 073d 1023 1fbb 12fc 143d 7a6e c93b
000001d0: 35e9 96bc 9340 86bc c9cb e1bc e60f e0bc
000001e0: a8b1 e4bc 1db9 25bd ee64 963a 8662 0b3d
000001f0: 78d9 583d b247 d9ba 6cc9 16bd 14e3 ddbc
00000200: 6013 943c e736 9d3c 09e9 2f3d cb16 34bd
00000210: 99e9 5fbd 9770 543d 5a00 48bd fbd5 33bd
00000220: 9503 0b3d 7306 0f34 d397 6ebd 93a1 91bc
00000230: ef88 313d a727 6a3d 0bf7 dd3c 735d 09bd
00000240: 72bb 163d 90ae 873b 1c1e 103d 8269 3bbd
00000250: 7ddf a63c ea08 513d 7b6c 48bc 8293 6f3b
00000260: 2291 e83c 4b3a 633d 4a39 5d3b 3209 4dbd
00000270: 8e11 e33c 3b90 38bc edcd 6f3b 7073 f2bc
00000280: 2894 6fbc 11a5 afbb 918e 3b3d abc6 f33c
00000290: 1cdd bd3b b322 293d 2533 cd3c 0729 c43c
000002a0: 1fcd 8b3c ee97 3e3d 18be 2a3c a80e f3bc
000002b0: 7662 cc3b a989 623c 87e6 65bd 368f b8bb
000002c0: 21ca 4d3d f553 41bd 7006 813c 76ec 08bd
000002d0: c79e e2bb 9d33 04bd 61bf 6ebd ff76 50bd
000002e0: 15d8 343d 17cd 213c c861 303d 157e 523d
000002f0: 2352 e3bc 4e6e 48bc d148 6f3d 6ddb 0bbc
00000300: d056 14bc 490d b63c af82 313d e7b0 1d3d
00000310: 8e8d 2c3c c3ca 8d3c 0c58 38bd 700d 063c
00000320: 315f f8bb 535b ffbc 5e58 593d 9322 4a3d
00000330: 388a 17bd 04b3 03bd dcc2 53bd 051e c6bc
00000340: 0d2c 1f3c 8f05 82bc 004c 173c 9b03 83bb
00000350: dad7 623d 1159 d13c 5480 d2bc a43d 433c
00000360: 16c1 44bc b3ff 703d 2a03 5ebd 129b 56bd
00000370: 3e2e 0bbd 9731 42bd 93c8 4bbd 6ef3 2f3d
00000380: 4dae e6bc ad77 d1bc 67cd 0d3c 8f3b 3fbd
00000390: 5cc0 6ebd 7932 44bd 0be0 5abd 4989 9cbb
000003a0: e8b0 48bd e3d1 bf3c 751b 9d3c 35cf 473d
000003b0: 17e2 0fbd 8079 5cbd 0931 94bc 71b8 a83b
000003c0: 65e5 133d b1a3 55bc 86c9 58bd c2ab 68bd
000003d0: a6f7 64bd 2c76 6a3c 9b70 6cbc c2e1 8a3b
000003e0: 4c6c 39bd 4dc1 d23c a786 6dbd 5a59 8abc
000003f0: 059c 20bc c2ae 183d 9298 9a3b 5dc0 0bbd
-0.050301343 -0.006540475 -0.037403606 0.023812301 -0.029269082 -0.035280064 0.058558036 -0.043829594
-0.024830772 0.034732353 0.022305068 -0.010849223 -0.039040875 0.03588693 0.051283795 -0.0292866
0.025570124 0.054326087 -0.027414635 0.01750847 -0.0087920455 0.015696924 0.0061987573 -0.04931438
-0.025257789 -0.02603255 -0.040146086 -0.017398832 -0.04467527 -0.05306155 0.03619169 -0.030410627
0.032334656 0.020221109 0.0018470092 -0.0047825454 0.018752402 0.032829963 0.04759939 -0.012715337
-0.0279584 0.052671522 -0.025660316 0.027618613 0.051329456 -0.0035346504 -0.033401284 -0.043891873
0.01359703 0.026038626 -0.055614755 -0.03652082 -0.039803047 0.048492078 -0.017527293 0.034882203
-0.033987198 -0.008287304 -0.029684823 0.00095680804 0.020408452 -0.0052667516 -0.010913342 -0.04015942
-0.04983258 -0.042303637 -0.024882859 -0.00021079356 -0.007590551 0.026678104 0.03403066 -0.04449973
0.042234674 -0.050781067 -0.05719107 0.008913545 -0.029897388 0.029620362 -0.046699606 0.047281895
-0.04977011 -0.017906671 0.006478399 -0.056813307 0.03005874 0.016602678 -0.040136732 -0.04968077
0.019209817 0.0103439 -0.05155298 -0.056013532 -0.052190803 -0.038970616 -0.021698624 -0.036007382
0.023833489 0.022114042 0.01932879 -0.0031348714 0.034495477 -0.04591751 0.02790196 0.0054644146
0.042706463 -0.007683667 0.008649597 -0.007022542 0.051400788 0.040994372 -0.03652674 -0.0037858011
0.032985575 -0.0024282373 0.036373205 0.006147203 -0.018421749 -0.016388213 -0.027562993 -0.027351331
-0.027916744 -0.04045974 0.0011474171 0.034029506 0.05294177 -0.0016577153 -0.036813185 -0.027085818
0.018075645 0.019191219 0.04294685 -0.04396705 -0.054666135 0.051865187 -0.04882846 -0.04390524
0.033938963 1.3320259e-07 -0.05825026 -0.01777724 0.04334348 0.05716672 0.027095338 -0.033536386
0.036799856 0.0041406825 0.035184965 -0.045754917 0.02037024 0.05103389 -0.012232895 0.0036556427
0.028389517 0.055475514 0.003375607 -0.050057597 0.027718332 -0.011264856 0.0036591247 -0.02959606
-0.014622726 -0.0053602536 0.04579026 0.029757818 0.0057941806 0.041292857 0.025048802 0.023945345
0.017065583 0.04653161 0.010421298 -0.029670075 0.0062373234 0.013826766 -0.05612805 -0.0056323064
0.050241593 -0.04719921 0.01575014 -0.03342863 -0.0069159004 -0.032275785 -0.058287982 -0.050894734
0.044151384 0.009875557 0.043062 0.051389772 -0.027749127 -0.01223333 0.058419053 -0.008536202
-0.009053901 0.022223132 0.04333752 0.038498785 0.010531796 0.017308598 -0.045005843 0.008181915
-0.007579707 -0.031171476 0.05306279 0.04934938 -0.03699705 -0.032153144 -0.051699504 -0.024184236
0.009715092 -0.015871791 0.009234428 -0.0039982325 0.055381633 0.025555165 -0.025695957 0.011916552
-0.012008926 0.058837604 -0.054202236 -0.05239398 -0.033979647 -0.047410574 -0.04975183 0.042956762
-0.028159285 -0.025569761 0.008654929 -0.04668766 -0.058288917 -0.047899697 -0.05343632 -0.004777108
-0.048996836 0.023415511 0.019178132 0.048781592 -0.035127725 -0.05382681 -0.018089788 0.0051489403
0.03610744 -0.013039515 -0.052926563 -0.056804426 -0.05590024 0.014310401 -0.014431144 0.004238338
-0.045269296 0.025726939 -0.057989743 -0.01688831 -0.009802823 0.037276037 0.004717895 -0.034119

conv4.bias f4 [64]
00000000: 985b 473d 257a 21bd b9fb 9b3c d762 c93c
00000010: dd98 3e3d 7ee2 063d 161a 2c3d 9eb6 3dbd
00000020: 1309 84bc c9c1 4cbb fb6f f03c 81cf 6fbd
00000030: ecae f2bc c00e c63c 45c3 2c3c 5f37 1e3c
00000040: a532 bbbc bbef bbbc c66c 3c3d 915f 1ebd
00000050: 19c7 413d de51 423d efb1 50bd 13e8 513d
00000060: 35ca 1c3d 78c5 9939 53fa 83bb 6b96 d93c
00000070: 521f 7dbc fcf9 80bc 8dec 583d 3890 9dbc
00000080: e946 e5bc 83e1 b23c 3f3c 9dbc 6368 b33c
00000090: b256 b43c e295 3ebd 9bc5 1f3c f743 183d
000000a0: b55f 283d ee34 06bd 9b07 37bc 08ee 1abd
000000b0: f372 2bbd 7db8 4b3d 06da cd3c 3ed9 0b3d
000000c0: a44f 55bd 2ef5 f93c aad7 e4bc ed8d d13c
000000d0: 0079 71bc 0091 26bd 00e2 44bc 428d e33a
000000e0: 77b9 1f3d 9b61 133d 0d09 4fbd 4036 7a3b
000000f0: b6f1 933c 31ae 3fbc 6eb7 143d 1d71 aabc
0.048671335 -0.039423127 0.01904093 0.024583263 0.0465325 0.032930844 0.042017065 -0.046316735
-0.016117608 -0.0031243435 0.029350271 -0.0585475 -0.029624425 0.024176955 0.010544603 0.009656756
-0.022851298 -0.02294146 0.046002172 -0.038665358 0.047309015 0.047441356 -0.05095094 0.051246714
0.038278777 0.0002932956 -0.0040276437 0.026560983 -0.015449362 -0.015744202 0.052959967 -0.019233808
-0.027987914 0.021836048 -0.019193767 0.021900361 0.022013996 -0.04652966 0.009751703 0.03717419
0.0411069 -0.03276532 -0.011171247 -0.03782466 -0.04185767 0.04973649 0.025128376 0.034142725
-0.052077904 0.030512419 -0.027934868 0.02558037 -0.014738321 -0.040665627 -0.012016773 0.0017360824
0.038995232 0.035981756 -0.05054574 0.0038179308 0.018059593 -0.011699245 0.036307745 -0.02080589

fc1.weight f4 [50, 1024]
00000000: 5747 a73b 78a7 0c3c ec36 e53c e56c 4cbc
00000010: 310e 343c 00f0 62bc 6d2e 1cbc 3c4a 27bc
00000020: 6084 00bc 91e9 48bb 4d08 c63c 1800 cd3b
00000030: 24db ff3c 2485 eebc 33c5 b83c 6d48 e6bc
00000040: c49f 323c 20db 53bb d02f 6dbb 7c6c 613c
00000050: 568a c53c cce4 9fbb d8f2 b13b 9a3f f1bc
00000060: 00a4 f138 6009 9b3a 4e59 41bc 4c45 ac3c
00000070: a046 43ba f05f 013c 1825 9bbc 80a1 b3b9
00000080: 2803 bbbc 5538 f6bb b9c2 7ebb e537 28bc
00000090: f133 cb3c f991 c43c 719b 2ebb c8ea 9ebc
000000a0: 6144 833c 4400 19bc 6d23 f5bc 5714 e6bc
000000b0: 30d3 a83c ed6f 9fbb 1848 80bc 6729 aa3c
000000c0: 97b0 ad3b e103 e13c ba85 afba 7226 85ba
000000d0: e111 933c bf95 98bc d820 723b bc5b 15bc
000000e0: 00ae c23c eae5 833c 965f 4e3c 9391 f93c
000000f0: 3d22 773c c0ef d9bc f1bb a2bb 3ebd 6fbc
00000100: 52af b5ba e9b9 afbc f6b6 4dbc c82f 0dbb
00000110: 4eef cc3c 0894 9e3c 21b0 ecbb 64cf c93b
00000120: 985b b63c 5820 b2bb 7ad4 b53b 0606 843c
00000130: 896a e2bc 8bf6 ee3c 6566 1ebc 724d 66bc
00000140: 2a0d 78bb e5ba 07bc 8e3e 71bc cb7c 083c
00000150: b096 fa3c 958c d9bc 4747 d7bc 1149 8bbb
00000160: 389d f3bc 7947 ff3b e374 fa3c e6b8 9ebc
00000170: c8bf b6bc 347e c13a 21ad e23b d107 7d3b
00000180: c9ab 18ba cdb4 98bc 816c a93c 9b6c 81bb
00000190: 974e e13c 1f54 27bb 42bb 42bc f130 24bc
000001a0: acd7 3f3c 23a5 8bbc 9230 aa3c 7554 013c
000001b0: def4 f63c c601 aabc 4248 373c 2157 edbc
000001c0: 0019 84bb 0c7d 9dbc 0c4e 92bb c8a6 7fbc
000001d0: 88f6 06bb 904f db3b 20db 6e3b 24c9 a73c
000001e0: 9a10 d53c e4b1 283c 40e3 fdb9 6022 e1bb
000001f0: 00f7 553b d00b f83b 44f3 6f3c 28a8 b2bb
00000200: 2b4b dfbb b9d3 06bc 9f45 953b 44f3 11bc
00000210: b851 a33b 1593 f0bc 803a e4b9 f0f7 dabc
00000220: b816 a13c 085d 8a3b e66f ef3c 5c62 463c
00000230: be04 3bbc c0d4 0b3c 9023 3d3b d4cc ed3c
00000240: 7a07 b53c a7bf f7bc 2663 7abc 74cd 923c
00000250: 086a a8bc 8df9 e2bc 98e7 813b 7971 013c
00000260: 953d bc3c 52f8 8fbc 3cdb ac3b bb08 89ba
00000270: 89c5 093c 323b 253a fd13 b33c cbd6 a8bc
00000280: 1fb2 a93c f8e8 c53b d2d8 243c bac1 0c3c
00000290: 5319 2e3b ac5d 8c38 4409 9bbc ccd3 e93c
000002a0: 0830 823c 96ea 373b 64af 083c 6663 4abc
000002b0: 4b42 f8bc 164a c63b d824 a6bb 863e ac3b
000002c0: ae90 e8bc 60b6 d73a 40cc 8e3a a02e 053c
000002d0: 64c0 2a3c 20cf e13a 9ca7 30bc 5039 43bb
000002e0: 70a3 193c 985b fc3c 743b f2bb b684 1bbc
000002f0: 84bc 7b3c 80d9 963a 148d debc 24d9 263c
00000300: e2eb 1bbc 1099 013c e0a9 68bb 4334 98bc
00000310: 803d 6d3a 801a 003a 84d5 e1bb d867 9fbb
00000320: 742f 0f3c 7707 a6bc 2149 e6bc c2bd 92bc
00000330: 076b 713b eb13 01bc 9727 ca3c fdb1 c43c
00000340: 9bca 873a 7976 7e3c 8fa3 013b 399a c73b
00000350: 360e c03c d73d e33b 11e1 bfbc 32a0 663c
00000360: 94d9 87bc f983 83bc 8428 a9bc dacd c6bc
00000370: b086 c73c 10ea 82bc c2ca a83c d46f 9bbc
00000380: 1fcf 143c b2d5 7a3c 01ac cc3c 69ca 543c
00000390: 1e00 aabc d845 30bc 4998 0e3c d88c 083c
000003a0: e0b6 84bb 5fcc 873c 4c20 363c 166c dbbc
000003b0: ab65 323c 5a62 903c 5534 8cbc 6bce c53c
000003c0: f7f5 efbc 681c 45ba d787 c23c e722 f73b
000003d0: e21f c4bb 29ca 803b 3d78 ce3c 6c1a 643c
000003e0: f319 64bc bf38 e1ba 30ce a5bc 6f36 1c3b
000003f0: cbfd 85bc 99ba 123c 5e65 8cbb 0b43 533c
0.00510494 0.00858485 0.02798029 -0.012477134 0.010989712 -0.013851166 -0.009532553 -0.01021057
-0.007844061 -0.0030656795 0.02417388 0.0062561147 0.031232424 -0.02911622 0.02255497 -0.028110707
0.010902349 -0.0032326654 -0.0036191829 0.013758775 0.024113815 -0.0048795696 0.0054305606 -0.029449273
0.00011522323 0.0011828355 -0.011801077 0.021029137 -0.00074491836 0.007896408 -0.018938586 -0.00034261867
-0.022828653 -0.0075140395 -0.0038873388 -0.010267233 0.024805041 0.023995386 -0.0026642943 -0.019399062
0.016023817 -0.009338442 -0.029924119 -0.02808587 0.020608515 -0.0048656375 -0.015659377 0.020771695
0.005300592 0.02746767 -0.0013391294 -0.0010158552 0.017952861 -0.018626092 0.0036945846 -0.009116109
0.02376461 0.016100843 0.012596032 0.030464923 0.015083847 -0.02660358 -0.004966252 -0.014632521
-0.0013861454 -0.021450954 -0.012555828 -0.0021543372 0.025016453 0.019357696 -0.0072231446 0.006158756
0.022260472 -0.0054359846 0.005549011 0.016116153 -0.02763869 0.029170295 -0.009667967 -0.01405655
-0.0037849643 -0.008284305 -0.014724387 0.008330534 0.030589432 -0.026556293 -0.026279105 -0.0042506536
-0.029738054 0.0077905026 0.030573314 -0.019375276 -0.022308245 0.0014762343 0.006917611 0.0038609395
-0.0005823938 -0.0186409 0.020681622 -0.0039497144 0.027503295 -0.0025532318 -0.011885466 -0.010021434
0.011709135 -0.017046517 0.020775113 0.007893671 0.030146059 -0.020752799 0.011186661 -0.02897221
-0.0040313005 -0.019224666 -0.0044648703 -0.015603729 -0.0020593721 0.006692834 0.0036446527 0.020481654
0.026008893 0.010296319 -0.00048425235 -0.006870553 0.0032648444 0.0075697675 0.014645401 -0.0054521747
-0.0068143806 -0.00822919 0.0045554186 -0.008908097 0.004984107 -0.02936701 -0.00043531135 -0.026729554
0.019664153 0.004222516 0.029228162 0.012108412 -0.011414705 0.00853461 0.0028860308 0.029028334
0.022098292 -0.030242754 -0.015282428 0.017920233 -0.020558372 -0.027706886 0.0039643757 0.007900589
0.022978583 -0.017574463 0.005275158 -0.0010454872 0.008408912 0.0006303071 0.021860117 -0.020610234
0.020714818 0.006039735 0.01006146 0.00859111 0.0026565387 6.693168e-05 -0.018925317 0.028543375
0.015892044 0.0028063408 0.008342598 -0.0123528 -0.030305048 0.006051312 -0.00507031 0.005256477
-0.028389301 0.001645755 0.0010894611 0.008128792 0.010421846 0.0017227866 -0.010782149 -0.00297888
0.009377345 0.030805394 -0.0073923413 -0.00949209 0.01536477 0.0011508912 -0.02716688 0.010183606
-0.009516688 0.007910028 -0.0035501644 -0.018579608 0.0009049997 0.00048867613 -0.006891908 -0.004864674
0.008739341 -0.020267231 -0.028111042 -0.01791275 0.0036837475 -0.007878284 0.024677081 0.024010653
0.0010360064 0.015531176 0.0019781326 0.006091383 0.023444276 0.006934862 -0.02342275 0.0140762795
-0.016583242 -0.01605414 -0.020649202 -0.02426808 0.024356216 -0.01598075 0.020604495 -0.018974222
0.009082585 0.015309738 0.024984362 0.0129877115 -0.020752009 -0.01075884 0.0087033 0.008334361
-0.0040501207 0.016576944 0.011116099 -0.026784938 0.010888497 0.017625023 -0.017114798 0.02414628
-0.02929209 -0.00075191865 0.023746414 0.0075420025 -0.005985246 0.0039303494 0.025203818 0.013922315
-0.013922202 -0.0017183049 -0.02023992 0.0023836156 -0.01635637 0.008955621 -0.004284545 0.012894402

fc1.bias f4 [50]
00000000: 5623 863b e846 3bbc 536f c0ba 5b9a 8e3b
00000010: a4e2 fbbc db6a f63b 3cd8 cdbb 117e 023c
00000020: 0815 21bb 7a87 93bc f3cb f5bb 9a1a 93bc
00000030: bb08 6cbc 9315 843c 4981 573b 8554 fc3b
00000040: d72c 6cbc 43f5 cc3c 31d8 e03b 4477 3b3c
00000050: a002 87bc 2f13 dfbb 6d21 99bb 6ce4 e6bc
00000060: 58f0 163c 883a cbbc ac00 433c c8a3 a53c
00000070: 4639 ec3c 90b8 b13b 39cc 75bc 3da9 aabc
00000080: 5d85 db3b faff 5d3c 6196 bb3c 3b04 993c
00000090: 7b2c 9c3c 5c64 85bc 7246 a93c 2d99 b8bb
000000a0: 6390 41bc f53e dcbb c11a bc3c 5182 d33c
000000b0: 583f 8ebc d1a7 f3bc bec3 b83c b347 45bb
000000c0: cfec c0ba b6d8 bebc
0.004093568 -0.01143048 -0.0014681615 0.0043518967 -0.03074772 0.0075200624 -0.0062818807 0.007964627
-0.0024579186 -0.018008936 -0.0075011193 -0.01795702 -0.014406378 0.016123569 0.0032883456 0.007700505
-0.0144149875 0.025019294 0.0068617095 0.011442009 -0.016480744 -0.006807707 -0.004673174 -0.028185092
0.009212576 -0.024808183 0.011902016 0.020219699 0.028835904 0.005423613 -0.015002304 -0.020832652
0.0066992478 0.013549799 0.022898855 0.018678775 0.019064179 -0.016283207 0.020663474 -0.0056334944
-0.01181421 -0.0067213723 0.022961976 0.025818976 -0.017364189 -0.029743107 0.022554275 -0.003010255
-0.0014719012 -0.023296695
