landmark_project/model_scratch.pt (torch, 305991 bytes, 10 tensors)

conv1.weight f4 [8, 3, 3, 3]
000000 d6 17 f3 3c 74 57 51 bd 6e b0 0f be c4 ad 2b 3d
       0.029674452 -0.051108792 -0.14032146 0.041913763
000010 2a a3 29 bd 16 46 95 bd 3f df 0e 3e 10 54 3d be
       -0.04141537 -0.072887585 0.13952349 -0.18489099
000020 e5 8c fe bd e0 a8 11 3e f2 bd 1d be 9e 78 30 3e
       -0.12429217 0.14224577 -0.1540449 0.17233512
000030 2d e3 05 bc d4 cf 40 be dc bb 99 3d c3 ff df bb
       -0.008171839 -0.1882928 0.075065345 -0.006835909
000040 53 3c 83 bd 4f a2 9a bc f2 73 b5 3d 88 bb 60 3d
       -0.0640799 -0.018876223 0.088600054 0.054866344
000050 19 89 fe bd 37 a5 a4 bc 50 3e 10 3d b6 78 0c 3d
       -0.12428493 -0.020098312 0.035215676 0.034294806
000060 77 7c 1b be e4 0d c7 bd da d0 13 be ce 8b e8 bd
       -0.15184198 -0.09719446 -0.1443514 -0.11354791
000070 0a b7 6a 3d af f5 63 3d 03 57 1d be 59 cd cd bd
       0.057303466 0.055654224 -0.15365224 -0.100489326
000080 55 03 1d be 9a 80 86 bd 83 c1 d6 3d 20 5c f9 3d
       -0.15333302 -0.065674976 0.10486128 0.121757746
000090 38 c9 c7 3c e8 e8 fb 3c 86 a1 2b bc 75 d4 79 3c
       0.02438794 0.030750707 -0.010475522 0.015248408
0000a0 1c fd 07 3e 19 55 1f be 58 ff ef bc 86 83 42 3e
       0.13280147 -0.15559806 -0.029296562 0.18995485
0000b0 4c 0d 02 be 89 87 85 bd 7e 35 a3 3d 82 0a 96 3d
       -0.12700385 -0.06519992 0.07969187 0.07326223
0000c0 ae c3 dd bb a2 09 90 bd 58 86 13 be 0e 85 1f be
       -0.0067677116 -0.07033087 -0.14406717 -0.155781
0000d0 33 a6 09 bd 6e 08 85 3d 06 ba 39 3c a2 e7 1d 3e
       -0.033605766 0.064957485 0.011335855 0.15420392
0000e0 32 bb 11 3e 95 2b 15 3e e6 ff d7 bc bb 68 3c bd
       0.14231566 0.14567406 -0.02636714 -0.045998316
0000f0 16 66 12 3d 6c 9f 40 be be 3b ab bd 15 80 3e 3e
       0.035741888 -0.18810815 -0.08361004 0.18603547
000100 09 f2 2c be 6a af 2b 3e 50 0a 65 bc 23 68 91 3c
       -0.16889204 0.16766134 -0.0139795095 0.017749852
000110 03 09 f9 3d b1 57 36 3e 73 bc 6c 3c e7 67 e1 3d
       0.12159922 0.17806889 0.014449227 0.11006146
000120 9a 10 2f 3e 03 e8 36 3e ae cb 2b 3e 23 1a a6 bd
       0.17096177 0.17861943 0.16776916 -0.08110454
000130 d7 b0 2c be c3 df c5 bd d8 ec cc bc 09 45 01 be
       -0.16864334 -0.0966182 -0.02501528 -0.12623991
000140 be 6e d1 bd a1 21 3d be 5c 3c 1b be 82 3b 57 3d
       -0.102262005 -0.1846986 -0.15159744 0.052546985
000150 01 43 48 3d 7a fe e0 bd 81 84 4d bd 22 89 97 3d
       0.048892025 -0.109860376 -0.050175194 0.07399203
000160 af 50 43 3e 5b 09 0b be ab 96 a4 bd b3 31 af bd
       0.19073747 -0.13577788 -0.0803655 -0.08554401
000170 9b 7f 4b 3c 30 65 49 bd db 3b 0e 3e 0e 85 8b 3d
       0.01242056 -0.049168766 0.1389002 0.068124875
000180 c8 ea 1b be c2 30 35 3e 29 95 78 3d 7d 3b b0 bc
       -0.1522628 0.17694381 0.060689125 -0.021512741
000190 1b e4 c7 bd 81 43 d1 3c 64 91 49 3d c0 78 d5 3c
       -0.097603045 0.025544884 0.04921092 0.026058555
0001a0 f5 3e 25 3e 63 f6 cc bd ca 77 91 bd 0a f8 45 3d
       0.16137297 -0.10007932 -0.07102926 0.04833225
0001b0 fd de f8 bd f2 0c cb 3d 42 bb df 3d 9b 59 0d 3c
       -0.12151907 0.099145785 0.109243885 0.008627321
0001c0 77 07 2e 3d 67 01 10 3e 68 6a ed 3d ab c4 2f 3e
       0.042487588 0.14063035 0.11592561 0.17164867
0001d0 0c 8f 2b be 86 6b 3e 3e d5 59 e8 3b 79 37 e7 3d
       -0.16753787 0.18595704 0.007090787 0.112898774
0001e0 f8 f3 ea 3d fe d6 17 bd 84 0b 68 bd c3 c6 f6 3d
       0.114723146 -0.037070267 -0.056651607 0.120496295
0001f0 75 28 a5 bd d0 c2 c2 3d 44 28 f9 bd e7 94 0d 3e
       -0.08064357 0.09509814 -0.12165883 0.13826333
000200 21 87 ae 3d f4 49 38 3d d1 46 76 bd 3a b3 33 be
       0.085218675 0.044992402 -0.06012613 -0.17548838
000210 f0 f2 14 3e 58 28 52 3d 38 72 26 3e 7f 6a 3d bc
       0.14545798 0.051308006 0.16254508 -0.011561035
000220 79 bb 3c be 1b ff 3a be 94 c0 02 be 68 38 1f be
       -0.1843089 -0.18261378 -0.12768775 -0.15548861
000230 88 3b e0 3d ca 46 e0 b9 b6 1c 31 be 3a 00 3c 3e
       0.10948855 -0.0004277735 -0.17296109 0.18359461
000240 28 48 e7 bd 44 00 08 3d e9 45 bb bd ee 83 3b be
       -0.112930596 0.03320338 -0.09144194 -0.18312046
000250 ef de f0 3d 06 a9 0c bd f7 15 28 be cf b6 87 3d
       0.11761271 -0.03434088 -0.16414629 0.06626665
000260 c2 64 34 be 77 75 b6 3d 11 5d 9e bd ff a0 d8 3b
       -0.17616561 0.089091234 -0.07732595 0.006610989
000270 89 70 d8 bd 0e 45 fc 3d ea 75 9a 3d 77 c3 5d bd
       -0.105683394 0.12317859 0.075420216 -0.054141488
000280 31 e9 c5 bd 40 2e bb bd b0 01 14 3e 0a 6c 42 3e
       -0.09663618 -0.09139681 0.14453769 0.18986526
000290 a9 38 bf 3d 0e d0 b7 3d 17 5d 35 be dd 77 df bd
       0.09336979 0.0897523 -0.17711292 -0.10911534
0002a0 05 57 16 3e fe 58 db 3d 35 1f 39 be 89 71 47 3b
       0.14681633 0.10710333 -0.18078311 0.0030432662
0002b0 1d e4 37 be ca 31 a7 bd 45 24 15 be ba be 07 bd
       -0.17958112 -0.081637934 -0.14564617 -0.033140875
0002c0 19 48 f5 bd df 7b 36 3e ff 5a 59 3d 3e 38 d0 bc
       -0.11976642 0.1782069 0.053065296 -0.025417443
0002d0 0d 1b 8d 3d 2e ec 03 3e ad 6c ad bd fe 81 24 be
       0.06889925 0.12883064 -0.08467994 -0.16065213
0002e0 61 e9 bb 3d 7e e8 28 3c 8c a4 c0 3d 55 28 ec bb
       0.09175373 0.010309337 0.09406385 -0.0072069564
0002f0 d3 91 b2 bd 3d 94 90 3d f3 b4 9b 3c ab 0e 44 bd
       -0.0871922 0.07059524 0.019007182 -0.04786555
000300 f0 f1 9a bd 2f ed b1 bd cb 40 1a bb 73 29 1a be
       -0.07565677 -0.08687817 -0.0023537155 -0.15054874
000310 0f 7f d1 3c 6e 0c 46 3d b1 98 33 be 79 6d fc bd
       0.025573282 0.048351698 -0.17538716 -0.12325568
000320 c2 a5 81 3d b6 80 ca bd a4 61 18 b9 ca 40 8e bd
       0.06330444 -0.09887831 -0.00014532224 -0.06945951
000330 fa be ee bc 71 47 e5 3d 9c 11 fe bd 79 18 93 bd
       -0.0291438 0.11195267 -0.124057025 -0.07182402
000340 b8 37 28 bc ea bb 16 be 75 8a 30 3e a4 50 23 3e
       -0.010267191 -0.14720121 0.17240317 0.1594873
000350 ef 68 20 bd 15 1c f3 3b 4e c5 04 3e a4 5b b5 3c
       -0.039162572 0.007419119 0.12965891 0.022138424

conv1.bias f4 [8]
000000 6d 6b 79 3d 04 01 3e 3e b4 1f ef 3d 99 17 bc bd
       0.060893465 0.18555075 0.11675969 -0.091841884
000010 44 0c d2 3d 5d 80 3f be f5 bd 10 be 60 d3 fd bc
       0.10256246 -0.1870131 -0.14134963 -0.03098458

conv2.weight f4 [16, 8, 3, 3]
000000 8a 6f cf bc 73 69 f0 bc de 0c 1d 3c ef dd e6 bd
       -0.02532174 -0.029347157 0.009585587 -0.11272799
000010 3f a6 c3 bd d1 be 3f 3c 0b d0 a2 bd 04 ae 2a 3d
       -0.09553193 0.011703209 -0.07949837 0.04166986
000020 ca 99 bd 3d dd 38 b6 3c c1 a0 80 bd e5 d1 99 bd
       0.092578486 0.022243911 -0.062806614 -0.07510737
000030 9f 8a f5 bc c1 c8 a6 bd 66 f2 94 3d 93 a9 83 bd
       -0.029973326 -0.081437595 0.07272796 -0.06428828
000040 e4 a6 c5 3d c2 62 c4 bc d2 38 bb 3c 1b 31 cd 3c
       0.096509725 -0.023972873 0.022854242 0.02504783
000050 65 6a 8f bc 94 56 18 3a ac a0 e0 3d 22 31 c2 3d
       -0.017506788 0.0005811241 0.10968146 0.094820276
000060 ea 34 ae 3d f6 4a b1 bd a4 89 97 bc 94 f0 d2 3d
       0.08506186 -0.08656876 -0.01849825 0.10299793
000070 2a 1a c0 bd ee 84 dd 3d 35 16 cd bd b7 23 17 bd
       -0.093799904 0.1081637 -0.10014001 -0.036899295
000080 68 ef c6 3d 86 b1 ea 3d ad 65 ac 3d 10 15 87 bd
       0.09713632 0.11459641 0.084178306 -0.06595814
000090 f1 54 36 bd c7 ac 57 3d e1 eb e1 3c f1 99 35 3d
       -0.0445146 0.052655008 0.027578296 0.044336263
0000a0 d5 b4 c0 bd bc f4 9f 3d bc 0c 0c bd 74 0f 47 bd
       -0.09409491 0.07810351 -0.034191832 -0.04859872
0000b0 ec 8c ea 3c fb 44 a4 bd cf 24 af 3d 85 bf ad 3d
       0.02863165 -0.080209695 0.085519426 0.08483795
0000c0 cd 2f ba 3d c3 92 e3 bd d7 e5 99 bc 40 f6 19 3d
       0.090911485 -0.11111977 -0.018786354 0.037588358
0000d0 fd d6 a0 bd 2e fb 7f 3d 81 36 13 3d 65 0a 18 bc
       -0.07853506 0.062495403 0.03594065 -0.009279822
0000e0 43 50 94 3d 30 40 a3 bd db d3 a3 bd cb 8b 2c bb
       0.07241871 -0.07971227 -0.079993926 -0.002632844
0000f0 b5 0c a2 bc 96 d9 41 bd f9 bc 82 bd 06 c9 c7 bd
       -0.01978145 -0.047326647 -0.063837 -0.09755139
000100 00 08 ea 3c c0 de 46 3c 67 99 c8 3d 3f 59 2c bd
       0.028568268 0.012138069 0.09794884 -0.0420773
000110 bd 91 0c 3d e5 81 8f bd 40 29 b2 3c 44 0a 32 3d
       0.034318674 -0.07007197 0.021748185 0.04346682
000120 93 5c 23 3a 5b 00 9d 3d a0 bc c0 bc e1 c9 b1 3d
       0.0006231751 0.076660834 -0.023527443 0.086810835
000130 65 c9 b8 bd 2d 71 8b 3c 09 07 10 bd a3 e7 7a 3d
       -0.09022788 0.01702174 -0.03516296 0.061256062
000140 ac 40 e6 3d 29 40 3b 3d b9 6f a1 3d 94 9e 9c bd
       0.11242804 0.045715485 0.078826375 -0.07647434
000150 d4 c8 aa bc 7d e0 04 3d c5 76 9b 3d b1 a9 a7 3d
       -0.020847715 0.03244065 0.07591013 0.08186663
000160 36 2a 58 bb 58 9b c7 bc 71 ac 98 bd dd e1 39 3d
       -0.0032984144 -0.024366066 -0.074547656 0.045381416
000170 6a c3 a3 3b 5d 67 8e bd a9 59 73 bd c1 fb 07 bd
       0.0049976604 -0.06953309 -0.05941168 -0.033199076
000180 50 e2 49 3d a4 9a f6 3b 17 ed 0d bd 35 07 8f 3d
       0.049288094 0.007525759 -0.034649935 0.069837965
000190 d3 52 ed 3c 5b ab 91 3d 90 c9 67 3d 78 10 4c 3d
       0.028970158 0.071127616 0.05658871 0.049820393
0001a0 ba ff f0 3b db e4 c1 bd ec 8b 0d bd 9e ec 2a 3d
       0.0073547037 -0.09467479 -0.034557268 0.041729562
0001b0 83 50 e8 3c 46 c8 38 3d ac c9 da 3d 7d 8c 85 bd
       0.028358703 0.04511287 0.10682997 -0.06520937
0001c0 65 4f 07 3c b0 ce a8 bd c9 a1 14 3d 33 fb 85 bd
       0.008258675 -0.082425475 0.036287103 -0.06542053
0001d0 27 39 89 bd 67 61 7a 3d 90 9a 58 3d dd 1b da bd
       -0.06700354 0.061128046 0.052881777 -0.10649846
0001e0 c6 26 93 bc 82 4d 3c bd 37 90 c3 3d 1d 7e c8 3d
       -0.017962825 -0.045972355 0.09548991 0.09789679
0001f0 0c 05 70 bd f3 53 55 bd ae 8c 25 bd c0 ec b1 3d
       -0.058598563 -0.052082013 -0.040417366 0.086877346
000200 4a 2e b2 3d a6 53 6c bd 97 6a 4e 3d 2f c8 aa 3d
       0.08700235 -0.05769696 0.05039462 0.08338963
000210 e3 c6 7a 3d 41 dd b2 3d 0a 84 bc 3a 79 8d e4 bc
       0.06122483 0.08733607 0.0014382612 -0.02789949
000220 a6 8c b1 3b 25 a5 4d bc c5 7b a0 bb ad 38 51 3d
       0.005418378 -0.012551581 -0.004897567 0.05107944
000230 27 e4 c1 bd e5 54 04 3d ce dd 9d 3d 32 73 9c 3c
       -0.09467345 0.032307524 0.077083215 0.019097898
000240 62 a6 53 bd 90 92 e1 3d 46 68 6c 3d 97 4d c7 bd
       -0.051672347 0.11014283 0.05771663 -0.09731596
000250 4c 07 a5 3d 0e 20 78 3d fb b1 2b bd 8a 08 90 bc
       0.080580324 0.060577445 -0.041917782 -0.017582197
000260 c1 43 e0 3c 5e df 74 3d 29 6c a9 bc ad 2c c0 bd
       0.027376058 0.059783332 -0.020681458 -0.09383521
000270 fc 80 ec ba 66 fd 44 bd 00 bc e3 bd 6a 9e 26 bb
       -0.0018043811 -0.048093222 -0.111198425 -0.0025424012
000280 81 29 11 3d c7 8e 36 3d 47 a9 f1 3c 7b 32 ee 3d
       0.03543997 0.044569757 0.029499663 0.11630722
000290 62 33 de bd ef 56 65 3c ad 16 34 bc 1b 9c b1 3d
       -0.10849644 0.013997777 -0.010991734 0.08672353
0002a0 6e 93 92 3d 7f e4 27 3d ef 1f 7f 3c c1 30 65 3d
       0.07157026 0.040989395 0.015571578 0.0559547
0002b0 8f e1 0a 3c 3b 16 99 bd 38 d9 b4 bd 44 81 e1 3d
       0.008476629 -0.07474943 -0.08830494 0.110109836
0002c0 07 7c 42 bd 11 60 77 bd 61 de 57 bd b3 c3 1e 3d
       -0.047481563 -0.06039435 -0.05270231 0.038760852
0002d0 aa e6 0f 3d 6c 19 2f 3a 96 68 d9 bd 28 f0 7b bd
       0.035132088 0.00066795084 -0.10615651 -0.061508328
0002e0 03 b5 c1 3d 17 56 ef bd 2f b1 8f bd a3 fa e9 bd
       0.09458353 -0.11686342 -0.07016217 -0.11424758
0002f0 a6 2c 32 3d a0 40 c9 bc fe 87 76 bb 20 73 2d bd
       0.04349961 -0.024566948 -0.0037617679 -0.04234612
000300 12 35 8e bd ce e9 94 3d 7c 3d 32 3d be aa 68 3d
       -0.06943716 0.07271157 0.043515667 0.056803457
000310 13 d4 cb bc 6c 2e a9 3d 3d ba ef bd 0e 55 e6 3c
       -0.024881398 0.082608074 -0.11705444 0.02811673
000320 92 84 f6 3c 4a 25 23 3d 24 22 b4 bd e6 93 a9 3d
       0.030092511 0.039830483 -0.08795574 0.082801625
000330 99 29 3f 3d 22 f6 ac bc 60 8e 2e 3d cf 1a 57 3d
       0.04667053 -0.021113459 0.042616248 0.0525158
000340 9c 48 93 bd d4 6d b6 3d 03 d7 81 bd 8d 91 cb 3d
       -0.071915835 0.08907667 -0.06339838 0.09939871
000350 df 76 10 3d 0f 2a 58 3d c2 60 66 3c 1a a4 9a 3c
       0.035269614 0.052774485 0.014061155 0.018877078
000360 80 2b da 3c 0a fb d9 3d 2f 63 15 bd eb 29 ad 3d
       0.02663207 0.10643585 -0.036471542 0.08455261
000370 69 8f 68 bc d0 4f 8e 3c 3b 34 05 3d ef 3a 7a bd
       -0.014194348 0.017372042 0.032520514 -0.06109136
000380 20 17 ab 3d ec 27 51 3c 02 1f d4 bc 25 06 a9 bd
       0.0835402 0.012765866 -0.025893692 -0.08253125
000390 e3 29 f3 bc ec 82 62 bd e3 26 59 3d 55 75 fa 3c
       -0.02968306 -0.055300638 0.0530156 0.030573526
0003a0 19 3d 92 bc 93 a6 9a 3d 5e d6 b2 bd 82 de bd bd
       -0.0178514 0.07551303 -0.087322935 -0.092709556
0003b0 f1 a2 a5 bd c2 4e db 3d a8 7b 7f 3d 83 0e 15 3c
       -0.08087719 0.10708381 0.062373787 0.009097698
0003c0 8f 90 6f 3d 4a 04 b1 3d e8 c9 82 3d 85 e8 a4 3d
       0.05848747 0.08643396 0.06386167 0.08052162
0003d0 8f 6c d9 3d 1e 25 89 3d 53 ce e5 3c 1a 1e db bd
       0.10616409 0.06696533 0.028052485 -0.10699101
0003e0 9c ea 01 bd e4 06 b3 bb 12 68 a4 3d f8 03 b4 bd
       -0.03171788 -0.005463468 0.08027662 -0.087898195
0003f0 f0 45 ae 3d b3 67 7b 3d 1a bb a9 bd dc c9 aa 3d
       0.08509433 0.061378192 -0.0828764 0.08339283

conv2.bias f4 [16]
000000 21 37 9e 3d e8 bb 35 bd 32 21 f8 3d 8d cb 0b 3d
       0.07725359 -0.044368654 0.121157065 0.034129668
000010 15 bd 26 3d ab a3 10 3c 60 52 ca 3d 82 c1 ca 3d
       0.040707666 0.008828084 0.09878993 0.0990019
000020 6d 42 89 3d 88 ed 2b 3d 01 6e be bd 50 24 af bd
       0.06702123 0.041974574 -0.09298325 -0.08551848
000030 4d 12 6c bd 7c 8e 5a bd d5 7c 92 bd 96 6f 5b 3c
       -0.05763464 -0.05335854 -0.07152716 0.013393303

conv3.weight f4 [32, 16, 3, 3]
000000 46 d5 16 bd 0b 75 2a bd 5e f7 6b 3d d4 c5 a4 bd
       -0.036824487 -0.041615527 0.057608955 -0.08045545
000010 40 83 89 bd 0b 3e f5 3c 7b 3f 16 3d 54 fb 1b 39
       -0.06714487 0.029936811 0.036681633 0.00014875579
000020 43 b1 95 bb 0f ff 8e 3d 2e a2 0a bd 1d 50 6b bc
       -0.0045682504 0.06982242 -0.033846073 -0.014362362
000030 1d 1e 62 3d 4f 89 c3 3b 7d 18 85 bd d8 8c af 3c
       0.0552045 0.005967296 -0.064988114 0.021429464
000040 47 9b 87 3d 4b 08 9e bd a7 be eb 3c 09 96 4e bc
       0.06621414 -0.077164255 0.028777434 -0.012609013
000050 9a d8 94 3c f0 1e 8a bd 22 c6 8f bd 70 d3 d5 3c
       0.01816969 -0.06744182 -0.07020213 0.026101798
000060 c2 96 d2 bc 2b fc 71 bd 2a 4f 13 3d 66 d2 26 3b
       -0.025706653 -0.059078377 0.03596417 0.0025454997
000070 7c 01 72 3d d1 51 eb bc 1c b6 86 3d 62 b4 67 bd
       0.059083447 -0.028725537 0.06577703 -0.05656851
000080 1f 0a 91 3c 54 4b 24 bb 29 9f 57 3d 18 45 c8 3c
       0.017705021 -0.0025069313 0.05264202 0.024447009
000090 6c 3b 9b 3b bd 06 08 bd 5a 0b 5e 3d cf fd c2 3c
       0.0047373082 -0.03320955 0.054210044 0.023802666
0000a0 e0 5b a5 bd 30 b2 48 bc ec af 9e 3d af db 89 bd
       -0.080741644 -0.012249514 0.07748398 -0.067313544
0000b0 9c 26 ce 3c 9f 97 20 3b 8f c8 ae 3c 20 4b 7c bc
       0.025164895 0.0024504436 0.021335868 -0.015398771
0000c0 bf a2 b4 bc 2d 3c 29 bd fc aa 39 bb 64 34 8b bd
       -0.02205026 -0.041317154 -0.0028330674 -0.06797102
0000d0 1b b0 5e bd e3 d0 be bc 50 8c f2 3c 2d d0 0c 3d
       -0.054367166 -0.023292964 0.029607922 0.03437822
0000e0 c2 ed 85 bd a5 ca f4 ba 98 0b bd 3c 9f c9 a9 3d
       -0.06539489 -0.0018676115 0.023076817 0.08290409
0000f0 d7 b2 c7 3c e9 aa 67 3d 04 4f 2e bd 52 36 14 bd
       0.02437727 0.056559477 -0.042555824 -0.036184616
000100 46 46 8f 3d 3b e3 ba bb 66 28 7d 3d 85 56 dc 3c
       0.069958255 -0.0057033575 0.061806105 0.026896724
000110 c7 91 97 bd 8f 22 09 bd a7 36 3f 3d 1b d1 68 3c
       -0.07400852 -0.033480223 0.04668298 0.014210011
000120 e4 69 b6 3c 42 90 93 3d 35 7e 8c 3c 4d 3f f9 bb
       0.02226729 0.07205249 0.017150024 -0.007606423
000130 ec bc 64 3d cc d0 5a 3d 2a 50 91 3d 88 8c 64 bc
       0.055844232 0.05342178 0.07095368 -0.013949521
000140 5e 77 5a bd 9a 25 3f 3d 22 e2 a1 bd e6 61 ce 3c
       -0.053336494 0.04666672 -0.079044595 0.025193166
000150 0e 64 a7 bd 7d f0 9b 3d d0 3a 3a 3d 33 a0 9a 3d
       -0.08173381 0.07614229 0.045466244 0.07550087
000160 d3 5d 0e 3c 01 dc c4 3c b6 18 8e bc e1 04 3f bd
       0.008689362 0.024030687 -0.017345767 -0.046635512
000170 5a 9a 06 bd c7 b2 9d bd 67 f4 4f 3d 5c c4 ca 3b
       -0.032862045 -0.07700115 0.05077019 0.0061879586
000180 9e 40 6e 3d d3 39 49 bd 39 42 28 3c 43 0b 54 3d
       0.058167093 -0.04912741 0.010269695 0.051768553
000190 a5 f1 3d 3b 32 a0 ea 3c 45 f3 a5 3c 28 09 bb 3c
       0.0028983143 0.02864084 0.020257602 0.022831514
0001a0 6c c2 9f bd 84 1a 92 3d 04 5b 2c 3b c5 d3 dd 3c
       -0.07800755 0.07133964 0.0026299367 0.027078519
0001b0 db c1 26 3c e5 89 0c 3d c9 28 a5 3a 42 aa d3 bc
       0.010178055 0.034311194 0.0012600656 -0.025838021
0001c0 de ec 4b 3d f1 ef 94 3b fc e2 b2 3c aa 61 b0 ba
       0.04978644 0.004545205 0.02183675 -0.001345684
0001d0 93 1b 39 3d 02 c7 5a bd 81 fe 21 bd 9f fd 88 bb
       0.045192312 -0.053412445 -0.039549354 -0.0041806246
0001e0 8a a3 97 bc ba a9 22 ba ea d2 e4 bc 2d f3 53 bd
       -0.018510599 -0.0006205101 -0.027932603 -0.051745582
0001f0 6c 63 34 bb 43 72 2b bd 2b c9 67 bc cf 7e a1 bd
       -0.002752508 -0.041857015 -0.014147083 -0.07885515
000200 12 c9 52 bd ea b8 c9 3c e1 2e 37 bd b8 42 89 bd
       -0.051461287 0.024624307 -0.04472244 -0.06702179
000210 0b f0 80 bd 95 71 1b 3d f4 44 c5 bc c3 35 b3 3b
       -0.062957846 0.037950117 -0.024080731 0.0054690554
000220 3f c4 0b bd 24 a6 80 bd 0f 9a 84 3d 7b d4 95 bd
       -0.0341227 -0.06281689 0.06474697 -0.07315918
000230 71 24 a9 bc 92 e1 c2 bc 8a 1d 91 bd 48 3d 80 3c
       -0.02064726 -0.023789201 -0.07085712 0.015654221
000240 a1 dc a3 bd a0 22 3a bd 8b 05 0a 3d 59 76 0d bd
       -0.08001066 -0.045443177 0.033696692 -0.034536693
000250 6f 50 31 bd 17 6b 98 3d bf e9 3c bd e7 a9 0d bd
       -0.043289598 0.07442301 -0.046121355 -0.03458586
000260 3f 87 7f 3d dc 53 88 bd 62 d1 24 3d f3 8b a1 bb
       0.06238484 -0.0665662 0.040238746 -0.0049300133
000270 76 b7 73 3c c8 b3 15 bd d2 5e 04 3d cc 6c a6 3d
       0.014875283 -0.036548406 0.03231699 0.0812622
000280 18 26 61 3d 79 48 07 3d 38 46 ac bb 13 d1 ca 3c
       0.05496797 0.0330281 -0.005257394 0.024757897
000290 a0 2d 88 3d 6c f8 79 bd 68 25 8a bd 52 f9 2b 3b
       0.06649327 -0.06102793 -0.06745416 0.0026241136
0002a0 c8 17 64 bd a6 ee 4d bd ec 94 00 bd 79 e5 ff 3c
       -0.055686742 -0.05027642 -0.031392023 0.03123735
0002b0 a4 cc 05 bb 4f a9 40 3d 5c df 95 3d 74 bc 87 bd
       -0.0020416165 0.047036465 0.07317993 -0.066277415
0002c0 60 b2 94 3d 2a 2a b2 3d e7 a9 5d 3d bb af 66 bd
       0.07260585 0.086994484 0.05411711 -0.056319933
0002d0 dd 22 bb bc 56 19 3f bb b9 3f 8b 3d c1 ea 85 bc
       -0.022843773 -0.0029159389 0.067992635 -0.016347291
0002e0 d1 cd 10 bd f9 31 70 3d d2 97 56 bd db 43 f7 bc
       -0.03535253 0.058641408 -0.05239088 -0.030183723
0002f0 3c df fa bc 17 ea f9 bc c3 bd 6f bd f3 10 2a bd
       -0.030624025 -0.03050713 -0.05853058 -0.04152007
000300 7a 06 a2 3d 10 c6 a6 3d 9f 56 6e 3d ac 18 92 3d
       0.079113916 0.08143246 0.058188077 0.07133612
000310 9a f2 07 bd 37 bf b1 3d 68 6e 28 3d 96 32 12 bd
       -0.033190347 0.086790495 0.041120917 -0.035692774
000320 60 82 5b 3d 68 9c d3 bc 9f 30 41 bd 64 4e 9c 3d
       0.053591132 -0.025831416 -0.04716551 0.07632139
000330 4c ec b8 3c 44 b3 20 bd 7e a8 95 bd 27 a4 e6 bc
       0.022573613 -0.03923346 -0.07307528 -0.028154446
000340 84 f7 28 3d c5 44 83 bd be bf a7 3d 76 fb 5a 3d
       0.041251674 -0.06409601 0.08190869 0.053462468
000350 e1 a9 fc 3c 07 13 41 3d 14 1c ae bc 0a c5 9f 3d
       0.030842723 0.047137287 -0.021253623 0.07801254
000360 e4 b9 93 3d 94 46 80 bd eb 93 a9 3c b4 a6 0b bc
       0.0721319 -0.06263462 0.020700416 -0.008523632
000370 2a 6b a1 bd c4 57 a4 3d e3 6f 46 bd 3b bd 85 3d
       -0.07881768 0.080245525 -0.048446547 0.065302335
000380 d3 38 7b 3d d8 a4 93 bd 19 e3 81 bd c8 ac 9c 3d
       0.06133349 -0.07209176 -0.063421436 0.07650143
000390 b6 04 de 3a ac 3a 8a ba 31 e7 83 bb fd f0 27 bc
       0.001693866 -0.001054605 -0.004025363 -0.010250327
0003a0 a2 d5 37 bd a4 81 4b 3d 96 ae 02 ba a0 03 88 3d
       -0.04488147 0.04968418 -0.0004985122 0.066413164
0003b0 ed 61 20 bd ee b2 88 bd ae 5f e0 3b a1 fd a7 3c
       -0.03915589 -0.06674753 0.0068473434 0.020506682
0003c0 d8 12 1f bd c9 78 b1 bc d3 08 81 3d 7e e6 a7 bd
       -0.03883633 -0.02166404 0.06300511 -0.0819826
0003d0 a0 78 67 bd 52 8d 06 3d 31 84 57 3d ef c7 f0 3c
       -0.05651152 0.032849617 0.052616302 0.02939221
0003e0 8f 8b 0e bd 0c 35 6f 3d 8c 3d 6c bd 30 84 95 3d
       -0.034801062 0.0584002 -0.057675883 0.073006034
0003f0 97 c3 84 3d 85 24 7a 3d 11 c4 9a 3d e3 99 a5 3d
       0.06482618 0.061069984 0.07556928 0.08085992

conv3.bias f4 [32]
000000 d2 49 04 3d 7c 34 66 3c ee 47 99 bb 2f 87 7d 3d
       0.032296963 0.014050599 -0.004677764 0.0618965
000010 7b 2d ab 3d 78 f9 85 3d 28 90 69 3d 6f 38 64 bd
       0.08358284 0.06541723 0.057022244 -0.05571788
000020 1c 93 2a 3d bd 02 5f bd a8 50 12 3d 76 ed 0a 3d
       0.0416442 -0.05444597 0.03572145 0.033917867
000030 0b 55 3c 3d 55 51 8e bd fb b7 48 3d e2 11 f7 3c
       0.04597954 -0.069491066 0.049003582 0.030159894
000040 eb e7 65 3d e0 98 70 bd 9c 21 7b bd 58 53 89 3c
       0.056129377 -0.058739543 -0.06131135 0.016763374
000050 65 df f8 bc a7 60 f1 bc df 73 fb 3b 2e ff 71 bd
       -0.03037996 -0.029465033 0.007673725 -0.05908125
000060 0f 84 4c bd e5 f3 16 3d 03 77 ed 3b 0b e3 31 3d
       -0.04993063 0.03685369 0.0072468533 0.043429416
000070 1e c3 6c bd 8f ad 3c 3d 75 6b 93 bd e8 df 3f bd
       -0.057803266 0.046063956 -0.0719823 -0.046844393

conv4.weight f4 [64, 32, 3, 3]
000000 ab 20 1c bd 99 7e 14 bd f9 66 44 3d c3 47 5f 3d
       -0.038117092 -0.036253545 0.047949765 0.054511797
000010 37 12 28 bd e8 5d b1 bc 40 fc 49 bd 8d ed bc 3c
       -0.041032996 -0.021651223 -0.04931283 0.023062492
000020 4b c9 b8 3c e4 25 12 3d d6 12 63 3d f3 d4 8c bc
       0.022556921 0.035680667 0.055437885 -0.017191386
000030 df 07 f9 3b a3 c2 67 3d 58 a2 e5 bb 8b f2 e3 bc
       0.0075998153 0.056582104 -0.0070078783 -0.027825614
000040 fc 0e 00 bd 7a bc f2 bc 7b 85 b1 3c 4a 94 40 3c
       -0.03126429 -0.029630888 0.021670094 0.011754105
000050 84 63 5f 3d 56 83 e0 bc 9e 61 15 bd b5 38 4e bc
       0.054538265 -0.027406376 -0.036470048 -0.012586762
000060 df d6 b1 3c ed d5 f7 bb 3a ce ee 3c 6d ff 21 3c
       0.021708904 -0.0075633437 0.02915107 0.009887558
000070 fd dc 5b 3d b3 e0 10 3d 43 ec 08 bd 3b 09 5f bd
       0.053677548 0.03537054 -0.03342844 -0.054452162
000080 fa a0 1c bd 5f a1 97 bc f2 f1 50 3d f3 f0 ed 3c
       -0.038239457 -0.018509565 0.051011987 0.029045558
000090 d8 d3 01 bc 73 fd 70 3d 25 86 e6 3c b1 02 56 3c
       -0.007924043 0.058835458 0.028140137 0.013062165
0000a0 3c a7 4f 3c 2e d0 70 3d 8c 3a 3c bc a1 d4 a5 bc
       0.012674149 0.058792286 -0.011488568 -0.02024299
0000b0 cd b6 c1 bc 56 68 82 bc 47 f4 40 bd 82 0a 50 3d
       -0.023646737 -0.015918892 -0.04710796 0.05079127
0000c0 cb 3a 0a bd 18 cd 01 bd 95 08 e8 bc 10 08 96 bc
       -0.033747476 -0.031689733 -0.028324405 -0.018314391
0000d0 7c 07 48 3d 8b eb ed 3c 0b f2 5f bc 7b ee 34 bc
       0.048835263 0.02904298 -0.013668547 -0.011043186
0000e0 8a 2c be 3c 6b 02 29 3d b7 de 58 bc 58 bd 2c bb
       0.023214597 0.04126207 -0.013236693 -0.0026357975
0000f0 74 a3 53 bc 0a cf 9b bc 7f 00 90 3c db 71 65 bd
       -0.012917388 -0.019019622 0.017578362 -0.056016784
000100 72 38 6f 3c a6 1f 40 3d a6 4a 70 3d 14 d3 e7 bc
       0.01460086 0.046905182 0.05866494 -0.028298892
000110 13 b4 96 bc b9 b7 1a bd 49 7f 71 3c cc b5 16 3d
       -0.018396413 -0.037772868 0.01473982 0.03679447
000120 41 48 1b 3d a1 9e f5 bc 53 d9 69 bc 08 1b d4 3c
       0.037910704 -0.029982867 -0.014273006 0.025891796
000130 ad 1f 60 bd 00 94 42 bd 3e 0d 06 bd eb 84 83 3c
       -0.05471771 -0.047504425 -0.032727472 0.016054591
000140 cc 39 a3 bc 05 f8 0e bd 09 8d 99 bb 1c 2d 26 bd
       -0.01992502 -0.0349045 -0.004686002 -0.040570363
000150 40 42 06 3c 9e b7 bc bc da 41 d2 bc f4 9b 32 bd
       0.008194506 -0.023036774 -0.025666166 -0.04360576
000160 94 9a b6 3c 0c 29 fa bc 2e 30 3f bd 25 0c 04 bd
       0.022290505 -0.03053715 -0.046676807 -0.032238144
000170 79 53 3b bd 88 1f 3b bd 42 5a a4 3c 6e c2 74 bb
       -0.045733903 -0.045684367 0.02006257 -0.0037347334
000180 e5 50 59 bc 3e ca 25 3d 5b 75 22 bc df 29 1e 3d
       -0.013263916 0.040476076 -0.009915675 0.03861415
000190 b0 10 be bc b9 c6 1d 3d f1 db d7 3c 73 6d 90 bc
       -0.023201317 0.038519595 0.026349993 -0.017630314
0001a0 a5 db df bc f0 4f 50 3d 19 3f 2b bd 14 98 03 bd
       -0.027326414 0.050857484 -0.04180822 -0.032127455
0001b0 3d 55 65 bd ae f2 2a bc c6 22 e6 3a fc 2a 60 bd
       -0.055989493 -0.010433836 0.0017557971 -0.054728493
0001c0 a4 dd ef 3c 9f ae 20 3d 80 c0 49 3c 5a 50 c5 bc
       0.029280491 0.03922903 0.012313962 -0.024086166
0001d0 bd 32 a8 bc 08 0b 1b bd 2e 58 38 bd cd 80 9f 3c
       -0.020532006 -0.037852317 -0.04500597 0.019470597
0001e0 16 5d ad ba ef 8b 99 3c 7c a7 fa bc 47 83 9c 3c
       -0.0013226594 0.018743483 -0.03059744 0.019105567
0001f0 2f ea 4b bd 41 37 e7 bc 62 d4 00 bd e3 09 98 bc
       -0.04978388 -0.02822459 -0.031452544 -0.018559402
000200 8d 50 89 bc 47 5b f7 3c 8a c2 91 bc 7e 55 0d 3d
       -0.016762042 0.030194892 -0.017792959 0.03450536
000210 b9 cb 37 3d cf 36 48 3d b9 ac c9 3c a8 8c f6 3c
       0.04487202 0.048880395 0.024618493 0.030096367
000220 7e 3a 38 3d 8b 25 54 3d ab 36 e5 ba 35 08 49 bd
       0.044977657 0.051793616 -0.0017487606 -0.049080092
000230 9c 05 e5 3c c2 aa 49 3d c4 ef 5d bd ce 9c 14 bd
       0.027956776 0.049235113 -0.054183736 -0.036282353
000240 77 d0 6a 3c b3 81 25 bd 48 13 22 3c 8e 47 2e bd
       0.014331928 -0.040406894 0.009892292 -0.04254871
000250 62 32 8a 3c 1f b0 99 ba 3d a1 0f bc c5 6e 45 3d
       0.016869728 -0.0011725462 -0.00876647 0.04820134
000260 fa 2a dc bc 8b e1 c5 3b d9 cc a3 3a e3 4a 15 3c
       -0.026875962 0.0060388497 0.0012496962 0.009112093
000270 c0 e6 a6 3b 83 45 ff 3c e2 3c e4 bb 71 b5 9d 3a
       0.0050934255 0.031161075 -0.0069652656 0.0012032223
000280 66 1c e0 bc 5a 0b c4 bc 37 45 45 3d 57 c2 52 3c
       -0.027357291 -0.023931194 0.04816171 0.012863717
000290 4c 5c f5 3a 21 25 d4 3c 38 d7 49 3d 90 d8 e4 bc
       0.0018719523 0.02589661 0.049277514 -0.027935296
0002a0 62 18 37 bd 6f e8 db bc 26 bc 5e ba ba ee a3 bc
       -0.044700988 -0.026844231 -0.0008496664 -0.020011295
0002b0 be 28 2c bd 66 a7 26 3d fe a4 0c bb ad 9f cd bc
       -0.042031042 0.040686987 -0.0021460648 -0.025100553
0002c0 e0 1c 1e 3d a9 4f 0e 3d 08 ed f6 bc 0a dc 77 3c
       0.038601756 0.03474394 -0.030142322 0.015128145
0002d0 6b e3 fd bc d8 be 15 bd 00 80 03 bd 5b de 04 3d
       -0.03099223 -0.036558956 -0.032104492 0.032438617
0002e0 04 88 70 bd 5a 49 a2 3c f7 fc 00 3d 4a f3 b5 3c
       -0.058723465 0.019810367 0.031491246 0.022210736
0002f0 08 ae ea 3b eb 01 57 3c de f2 87 3c ed df 3d 3d
       0.0071618594 0.013123016 0.0165953 0.04635613
000300 4b 5c b5 3c 56 48 1b 3d 8f 45 fd bc 80 75 df 3c
       0.022138735 0.03791078 -0.030916957 0.027277708
000310 9d d5 b9 bc b7 e4 2d bd d4 c9 bb 3c d0 0b d8 3c
       -0.022684867 -0.042454448 0.022923388 0.02637282
000320 45 8f 43 bd 3f b2 bb 3c d1 67 5b 3a c8 db 59 bc
       -0.047744054 0.022912143 0.0008369657 -0.013297029
000330 b7 1b 9c bc 4a f4 de 3c 1b cf 20 bd dd 04 70 3d
       -0.019056184 0.027216095 -0.03926001 0.058598388
000340 08 df b1 bc 46 93 e0 bc dc da 46 3d 76 3f de 3b
       -0.021712795 -0.027413975 0.048548564 0.0067824675
000350 58 2d 25 bd 43 44 4b 3d b2 4a 04 3d 0c 88 27 3d
       -0.040326446 0.049625646 0.032297798 0.04090123
000360 b8 02 66 bd ae ce 55 bd 34 86 cb bc 35 99 5d bd
       -0.056154937 -0.05219906 -0.024844266 -0.054101188
000370 25 1a c7 3c 24 05 08 bc 72 a3 8d 3c ca 5d 9c bb
       0.024304459 -0.008302007 0.01728985 -0.0047719227
000380 e6 5e 38 bd c1 5b 14 b9 52 62 3a 3d f6 aa 01 bd
       -0.045012377 -0.00014148561 0.04550392 -0.03165718
000390 ae b9 00 3d b7 f6 f1 bb 6f e1 3a bd 84 ec b9 bc
       0.031427078 -0.007384147 -0.045625146 -0.022695787
0003a0 78 31 66 3d 4b ea ab bc d7 23 2f 3c d9 ba 6b 3d
       0.05619952 -0.020985743 0.010689697 0.05755124
0003b0 5b c4 59 3d 16 a7 13 bd 41 c1 59 3c 5f 25 3e 3d
       0.053165775 -0.036048017 0.013290704 0.04642236
0003c0 8c 0c 85 3c de 31 a1 bc ab 40 a8 bc 03 3c 23 bd
       0.016241334 -0.019677099 -0.020538649 -0.039852154
0003d0 b0 82 33 bd 5a 7e f1 bc e2 9b 98 3c 3c 19 da 3c
       -0.043825805 -0.029479194 0.018629018 0.02662336
0003e0 03 f5 66 bd c0 da 37 3d 21 c4 6f bb bb b2 2e ba
       -0.056386005 0.04488635 -0.0036585408 -0.0006664206
0003f0 5e 5e dd 39 27 32 a9 3c 99 99 56 bc 70 a3 24 bd
       0.00042222714 0.020653797 -0.013098144 -0.04019493

conv4.bias f4 [64]
000000 8d cc 18 bd 80 81 e4 bc da eb 2e 3b 82 8f 23 bd
       -0.03730445 -0.027893782 0.0026690871 -0.03993178
000010 da 5c 2f 3d cc 46 f4 b9 1f 6f 3c 3d 84 92 36 bd
       0.04281316 -0.00046592054 0.04600441 -0.044573322
000020 73 49 5a bd 90 bf 5c bd ad 39 4f bd fe a0 2e 3d
       -0.053292703 -0.053893626 -0.050592113 0.042634003
000030 d4 b0 25 bd f4 7d ad bc b5 21 f1 3b 44 5e 3a bd
       -0.04045184 -0.021178223 0.0073587545 -0.045500055
000040 54 2b 37 bd 7f f1 60 3d da 82 77 bc 6b 24 96 3a
       -0.044719055 0.05491781 -0.015106881 0.0011454945
000050 ec 07 41 bd 78 c6 51 bd 85 33 f1 3c b6 ed 12 3d
       -0.047126696 -0.051214665 0.029443512 0.03587123
000060 67 fc 05 bd 62 6e 3d 3d fb a1 8b bc 7f 89 df 3b
       -0.032711413 0.046247847 -0.017045012 0.0068218107
000070 fd 0f ae bc 49 0f f0 bc 49 43 47 3d 67 63 4e bc
       -0.021247858 -0.029304164 0.048648153 -0.012596942
000080 8b fe 48 bd 3a 14 0e 3c ea 95 38 bd 23 a3 2d 3d
       -0.049070876 0.008671815 -0.045064844 0.042391907
000090 c5 d1 9a 3c 42 ae 3f bd 50 d0 44 3d 3d c7 56 3d
       0.018898854 -0.046797045 0.048050225 0.052436102
0000a0 79 19 1c bd 5a 20 05 bd 8a c4 85 3b b3 2a 16 3c
       -0.03811023 -0.032501556 0.004082267 0.009165454
0000b0 54 85 1e 3d 4b ad ca 3c 93 6f 56 bc 71 3e 37 bd
       0.03870137 0.024740836 -0.013088125 -0.044737283
0000c0 8f 1d e2 3c 4c d4 c6 bb bd 6e 2d bd 22 c2 ba 3c
       0.027601985 -0.006067788 -0.042341936 0.022797648
0000d0 71 39 e9 3c 77 3b 4a 3d d7 cc 58 3d a1 e7 bb 3b
       0.028469773 0.049373116 0.052929725 0.0057343994
0000e0 d6 78 f4 3c b7 a4 73 3b 82 1d 4d 3c 9d 9f d4 bc
       0.029842775 0.0037177035 0.012519242 -0.025955016
0000f0 6b 4b c5 3c 1b 02 34 bd 1f 94 50 3d d4 62 1e bd
       0.024083814 -0.04394732 0.05092251 -0.03866847

fc1.weight f4 [50, 1024]
000000 b0 ee 1d bc 4c 4f a3 3b 65 6f 9a 3c 1c fa f4 3c
       -0.009639427 0.004983818 0.018851945 0.029904418
000010 2a e0 96 3c 6f b3 c3 3c 1a 95 d9 3c 41 55 21 bb
       0.018417437 0.023889272 0.026560355 -0.0024617466
000020 af 84 4c 3c 03 82 be 3c c2 94 46 bb 5f c3 d4 bc
       0.012482806 0.023255354 -0.003030107 -0.025972066
000030 ec 0b 64 3c 0e 68 f4 3c 86 e7 85 3a 20 d0 52 bc
       0.013918858 0.029834773 0.0010216094 -0.012867004
000040 d8 6d ee 3b a0 87 b7 3c fe fb 49 bc 8e e2 a4 3c
       0.007276278 0.022403538 -0.012328146 0.020127561
000050 fc 28 4c bc 4c 5f f5 bb 28 f2 df 3c b8 d2 b1 3b
       -0.012460943 -0.007488167 0.027337149 0.005426731
000060 3b 70 df bc 28 8e ac 3c d0 cf b6 bb 10 1d 98 bc
       -0.027275195 0.02106388 -0.0055789724 -0.018568546
000070 aa 96 aa 3c 40 22 91 b9 54 b3 b5 3c 92 a7 df bc
       0.020823795 -0.00027682073 0.022180237 -0.027301583
000080 fa 6d fb bc 24 e9 e5 3c a0 c1 ec bc be 95 87 3c
       -0.03069209 0.028065272 -0.028900921 0.016550895
000090 c3 68 c4 bc d7 5f 14 bb 4d 14 f3 3b c6 df ab 3c
       -0.023975736 -0.0022640133 0.0074181915 0.020980727
0000a0 ed 6d 9f 3c e5 e4 c5 3c 48 2b 85 3b 77 02 53 3c
       0.019461596 0.024156997 0.0040639974 0.012879006
0000b0 e1 cb 8e bb 3a 9c 55 3c be 57 83 3c 83 ea c3 3c
       -0.0043578004 0.013037736 0.01603305 0.023915535
0000c0 c3 ed f8 3c e1 84 c1 bc 5e 27 f2 bc f7 63 70 bc
       0.030386811 -0.023622932 -0.029559787 -0.014672271
0000d0 7e 46 4e bc f5 5e 57 3c 84 9b aa bc 5d 97 ac 3c
       -0.012590049 0.013145198 -0.020826109 0.02106827
0000e0 ed 6d a3 bc 40 48 35 3c d2 52 8b bc a2 f0 80 3b
       -0.019949878 0.011064589 -0.017007265 0.0039349357
0000f0 13 5d 92 3c 65 1f d1 3c 94 e3 4f bb 25 75 d6 bc
       0.017866647 0.025527665 -0.003172134 -0.026178906
000100 74 f6 c4 3b f0 e0 f9 3b 34 10 81 3c 26 70 b8 3c
       0.006010825 0.0076256916 0.015754797 0.022514414
000110 9c dd dc 3c 50 99 d4 3c 12 21 9b bc 6e 0c b5 bc
       0.02696114 0.025952011 -0.018936668 -0.022100653
000120 72 51 cc 3c 1e 7f b5 3b 26 30 4e bc 9f d1 fb 3c
       0.02494118 0.005538835 -0.012584722 0.030739604
000130 21 f1 b8 bc 54 59 db bc a1 6e 95 bc eb 38 fe bc
       -0.022575917 -0.026775993 -0.018241229 -0.031033
000140 2b 0e be bc 44 f6 ae 3c 2d e2 1a 3c 1d e5 40 3c
       -0.023200115 0.021357663 0.009453339 0.011773375
000150 ac b1 b9 3c 39 a2 dc bc d4 8d b4 3c cb cd a8 3c
       0.022667728 -0.026932823 0.022040285 0.020605942
000160 35 f3 1f bc 9f ac f2 3c 88 8b 15 3c dc 5c fa 3b
       -0.009762575 0.029623328 0.009127505 0.007640464
000170 0d 04 52 3c 46 d7 9f 3c f7 7e 8a bc f9 f2 d0 bc
       0.012818349 0.01951183 -0.016906245 -0.025506483
000180 5e 77 8a bc 36 73 39 bb 52 db 30 3c fe 19 fa bc
       -0.016902622 -0.002829743 0.010794478 -0.030529972
000190 0c 4e 79 bc 46 ee 72 bc 0b c5 65 3c 5b b8 df bc
       -0.015216362 -0.014827317 0.0140240295 -0.027309587
0001a0 2b 8e e4 3c 92 89 64 bb cd ae c9 3b a7 bf 8e ba
       0.027899822 -0.0034872037 0.006154871 -0.0010890857
0001b0 26 54 4d 3c c8 6f 57 bc 10 4e ea 3c 46 50 04 bc
       0.01253227 -0.013149209 0.028601676 -0.008075779
0001c0 07 92 eb bc c6 66 cb ba ca e3 f6 bc a5 d1 3c 3c
       -0.028756155 -0.00155183 -0.030137915 0.0115245925
0001d0 f2 54 bc bb fc b8 71 3c cc ec d0 3c ae 47 a5 3b
       -0.005747431 0.014753576 0.025503539 0.0050439453
0001e0 f0 ae b0 bc 73 de f9 3c ed 0b bf bb aa 08 87 3a
       -0.021567792 0.03050158 -0.005830279 0.0010302265
0001f0 01 65 cf 3c 62 1d fc bc e7 14 87 3c 58 d8 e3 bc
       0.025316717 -0.03077573 0.01648946 -0.027813122
000200 48 7d a7 bc b0 90 38 3b 6d a7 96 bc bc 71 5d 3c
       -0.020445481 0.0028162412 -0.018390382 0.013515886
000210 14 a7 1a bc c0 f9 77 3a 87 68 b8 bc fa d7 d9 bc
       -0.009439249 0.0009459518 -0.02251078 -0.026592243
000220 b8 f3 93 3b 60 e2 ed 3b a0 42 0d bc ba c3 e1 3c
       0.0045151375 0.007259652 -0.008621842 0.02755915
000230 62 37 a8 bc 60 77 82 3a 36 00 fa 3c 02 0e ac 3c
       -0.020534221 0.0009953789 0.030517679 0.021002773
000240 3d de fc bc 7d 56 a0 3c 0c bf 84 3c 2e bf e4 3c
       -0.03086769 0.01957249 0.01620438 0.027923193
000250 3d aa ee 3c 59 63 ce 3c db ae 73 3c 92 b6 ec ba
       0.02913391 0.025193857 0.014873232 -0.0018059781
000260 a7 b5 ea 3b ae a1 c3 39 bd 6b 6d 3c ab 0c 9d bc
       0.007162768 0.0003731376 0.014491019 -0.01917108
000270 99 29 56 bc 5f 20 1e bc b6 46 c4 3c 7a 70 0a bc
       -0.013071441 -0.009651273 0.023959499 -0.008449668
000280 60 64 c2 bb b8 0d 92 bc 04 bc 62 3c 60 83 21 ba
       -0.005932376 -0.017828807 0.013838772 -0.0006161239
000290 ec bc 38 3c 1e 71 5b bc ee c6 ae 3c 9a a3 d3 3c
       0.011275511 -0.013393668 0.021335091 0.025834847
0002a0 b7 60 92 3a 44 db 1a 3c e8 57 1d 3c 9c 61 92 3c
       0.0011167739 0.009451691 0.009603478 0.01786881
0002b0 7c 90 06 3c 60 fa 64 bc 14 ef 66 bc e7 28 cb bc
       0.008213159 -0.01397571 -0.014095087 -0.024799777
0002c0 1d 41 e8 ba c3 74 51 bc 82 25 cd 3a 65 9d 88 3b
       -0.0017719601 -0.012784186 0.0015651437 0.0041691535
0002d0 65 89 74 3c 2e 84 9f bc 19 9d ce bc 90 95 71 bc
       0.0149253355 -0.019472208 -0.025221394 -0.014745131
0002e0 43 84 f1 bb 67 47 a6 3c 9a 4c 98 3c 36 1d ba 3c
       -0.007370503 0.02029772 0.018591214 0.022719007
0002f0 fa bc 71 bc 55 ef 42 bc 64 27 67 3c 69 99 fa bc
       -0.014754528 -0.0118978815 0.014108513 -0.03059073
000300 2d ff db 3c b7 e8 9c bc 8e ac c3 bc 8b 82 6c 3c
       0.026855076 -0.019153936 -0.023885991 0.014435421
000310 b9 52 9f bc 21 ff 58 bc 9d 28 f5 bc 4a 4c 38 3c
       -0.019448625 -0.013244421 -0.029926592 0.0112486575
000320 5a a0 8d bc 25 61 8f bc 7f 95 c2 bc ea b3 89 b9
       -0.017288376 -0.017502377 -0.023752926 -0.00026264723
000330 04 a8 da bc c2 4e f0 3b 08 6d c8 3b c5 b0 43 bc
       -0.026691444 0.0073336074 0.006116513 -0.011944001
000340 f3 91 55 3c 6f 22 f4 bc 90 01 af bc c4 ca 6c bc
       0.013035285 -0.029801575 -0.02136305 -0.01445264
000350 d3 6d e9 bc 81 e3 56 3c 60 a5 8f bc 46 d6 3d 3b
       -0.028494751 0.013115765 -0.017534912 0.0028966828
000360 45 38 9e 3b ba 78 b9 bb 2d 52 04 ba 9b 29 bd bb
       0.004828485 -0.0056601437 -0.00050476455 -0.005772782
000370 6b 81 e1 bc 58 c4 09 3c 74 20 c0 bc 73 a7 7b bc
       -0.027527532 0.008408628 -0.023452975 -0.015359747
000380 b9 e0 d3 3c b1 38 89 bc b5 f2 ff 3c 82 e0 ec ba
       0.025863992 -0.016750665 0.031243661 -0.001807228
000390 2c e9 9f 3c 0c d1 a8 bc fd a4 fd 3c bc 0b c3 3b
       0.019520365 -0.020607494 0.030962462 0.0059523266
0003a0 25 a5 51 bc c7 e1 a8 3c 44 52 b3 bc dd cd 4b b8
       -0.012795721 0.020615472 -0.021889813 -4.8590697e-05
0003b0 e5 c3 66 3b bc c7 93 ba 12 ed 82 bc ad b6 5e bc
       0.0035211977 -0.0011274735 -0.015982185 -0.013593358
0003c0 cf 3f e9 bb 5e 2c c0 bb 78 18 e9 bc 3f ea bb bc
       -0.0071182023 -0.005864664 -0.02845405 -0.022938846
0003d0 9a 63 a3 3c c8 07 88 bc 75 3f 1a bc 23 cf 88 bc
       0.019944955 -0.016605273 -0.009414543 -0.016700333
0003e0 0c 84 6b 3c 12 24 c2 3c f6 72 c9 bc 63 b8 07 3c
       0.014374744 0.02369884 -0.02459095 0.008283707
0003f0 71 58 c7 3c 42 81 f7 3c 45 e0 ac bc 37 1f be bb
       0.024334164 0.030213002 -0.021103034 -0.005802061

fc1.bias f4 [50]
000000 ce f2 8f 3c 76 0a 9f 3c 1a e9 a3 bb 5b 63 11 bc
       0.017571833 0.019414168 -0.005002153 -0.008873786
000010 1f cd 55 bb 0e 7d 8f 3c cb 94 08 bc 11 60 36 3b
       -0.0032623482 0.017515685 -0.008336256 0.0027828256
000020 db 89 b4 bc ac b8 55 3c 3e ec 42 bb b0 c4 ad bb
       -0.02203839 0.0130445175 -0.0029742862 -0.005302988
000030 cb fb 01 3c f2 f7 ad bc cb 68 b8 bc 06 19 66 3c
       0.007933567 -0.021236394 -0.022510907 0.014044052
000040 7d a6 92 bc 6c 47 9c bb 26 57 20 3b 53 32 d9 3c
       -0.017901653 -0.0047692563 0.0024466007 0.026513254
000050 9a c9 cc 3a c4 b5 a8 3c 5b c2 65 3c c6 e0 70 bc
       0.0015624047 0.020594485 0.014023389 -0.014702028
000060 b6 32 2d 3c eb 70 9e 3b a2 1f cc 3c 90 a3 fd bc
       0.010571172 0.004835238 0.024917427 -0.030961782
000070 9f 11 0a 3b 71 8d 65 ba ae ce 43 bb f2 76 51 3c
       0.0021067632 -0.0008756733 -0.002987783 0.012784706
000080 24 1e fb 3c 46 67 9b 3c 15 ee 3a bc 4f 09 14 bc
       0.03065402 0.018970143 -0.011409302 -0.0090354225
000090 3c 94 ac bc 87 ad 62 bc f2 56 05 3c 61 32 83 3c
       -0.021066777 -0.013835317 0.008138405 0.016015233
0000a0 5c da 67 3c 98 1c 17 3b b5 fb b0 3c 9f c5 1b 3c
       0.014151182 0.0023057815 0.021604398 0.009507566
0000b0 e7 1d b9 bc f5 98 80 3c 19 ed df 3b 5f 09 36 3c
       -0.022597266 0.015697936 0.006833684 0.011110633
0000c0 ff 25 56 bb fe 7b 4c 39
       -0.0032676456 0.00019501147
